snorkel/good_model_0.pth (torch, 3064 bytes, 4 tensors)

network.0.weight f4 [32, 3]
0	0xbe0277da	-0.12741032
1	0x3e4c6ea8	0.19964087
2	0xbf16f2c6	-0.5896419
3	0xbf067ba0	-0.52532387
4	0xbde6004d	-0.11230526
5	0x3e8b0df6	0.2715909
6	0x3dc62d9e	0.096766695
7	0x3f11a0b4	0.5688584
8	0x3d7d2fb8	0.061813086
9	0x3e8d649d	0.27615824
10	0xbe9472d9	-0.28993872
11	0x3c036b69	0.008021214
12	0xbf2a2a1b	-0.664705
13	0xbe89779d	-0.2684907
14	0xbeae3b9a	-0.34029847
15	0xbbcf6a77	-0.0063298303
16	0x3e46a78d	0.19399853
17	0x3eee1b8c	0.46505392
18	0xbead4167	-0.3383896
19	0xbe898b65	-0.26864162
20	0x3ea60d54	0.32432044
21	0x3f02d17d	0.51100904
22	0xbdc0f656	-0.09421985
23	0x3ed11fab	0.40844473
24	0xbe555072	-0.20831469
25	0x3e06dee9	0.13170971
26	0x3f2165fe	0.6304625
27	0xbf24260f	-0.6412057
28	0xbedd6b81	-0.4324608
29	0xbd9849bf	-0.07435941
30	0xbeb05e92	-0.3444715
31	0x3ec5bdc1	0.38621333
32	0xbef7b8db	-0.4838322
33	0xbe8b9317	-0.27260658
34	0xbeaefe72	-0.341785
35	0xbf0f705f	-0.5603084
36	0xbe87130f	-0.26381728
37	0x3ed9e24d	0.42555466
38	0x3e3c950f	0.18416236
39	0x3ecc5fe1	0.399169
40	0x3dfadb2f	0.12248837
41	0xbe362204	-0.17786413
42	0x3e34fef8	0.17675388
43	0xbf1aac54	-0.604192
44	0xbeaf26cb	-0.34209284
45	0xbec6961e	-0.38786405
46	0x3e9f4b6a	0.31112224
47	0x3ecfea6c	0.40608537
48	0xbebbda17	-0.36689827
49	0x3c66527d	0.014057753
50	0x3ef430e9	0.47693565
51	0x3f1f9926	0.6234306
52	0x3e94d58b	0.2906917
53	0x3e41fb53	0.18943529
54	0x3f00388c	0.50086284
55	0xbe79cdc4	-0.243949
56	0x3db687ba	0.089126065
57	0xbec94f19	-0.3931816
58	0xbeadf5d3	-0.33976611
59	0xbe7dae7b	-0.2477359
60	0x3e29980a	0.16561905
61	0x3e099b32	0.13438109
62	0xbee8e31c	-0.4548577
63	0x3e103aae	0.14084885
64	0x3e895f7f	0.2683067
65	0xbdf10295	-0.117680706
66	0xbd71a8f6	-0.058999024
67	0x3dc29f23	0.09503009
68	0x3e93f336	0.28896493
69	0x3ef9e212	0.4880529
70	0xbee91b7b	-0.45528778
71	0xbe90e28d	-0.28297845
72	0x3ea99be9	0.33126763
73	0x3ecfd4bb	0.40591988
74	0x3ee3f2c6	0.4452116
75	0x3f1f450d	0.6221474
76	0x3e2c2642	0.16811469
77	0xbec77efe	-0.38964075
78	0x3de225f7	0.110423975
79	0xbea47547	-0.32120726
80	0xbef4c341	-0.47805217
81	0x3ee11f6e	0.4396929
82	0x3eb17fda	0.34667856
83	0xbf2a790d	-0.6659096
84	0x3ddd5092	0.10806383
85	0xbdc7307a	-0.09726043
86	0xbdc2944d	-0.095009424
87	0xbebd4bd0	-0.36971903
88	0x3e965d52	0.29368073
89	0xbee8f650	-0.45500422
90	0x3e0e1a65	0.13877256
91	0x3e7c34ec	0.24629563
92	0x3eb7e7ac	0.3591894
93	0x3df0da52	0.11760391
94	0xbeefd19f	-0.46839616
95	0xbef5d699	-0.48015288

network.0.bias f4 [32]
0	0x3ebddf31	0.37084344
1	0x3e686327	0.22694074
2	0xbea9abcf	-0.33138892
3	0xbe4e58a3	-0.20151
4	0x3f17d520	0.5930958
5	0x3f02c967	0.51088566
6	0xbe85e17f	-0.26148602
7	0xbe15fca1	-0.14647152
8	0xbedfd612	-0.4371801
9	0x3dc5df12	0.09661688
10	0xbea12259	-0.31471518
11	0xbee8db87	-0.45479986
12	0xbdd8bc14	-0.10582748
13	0x3e58782a	0.21139589
14	0xbe8f7880	-0.28021622
15	0x3ed197c7	0.4093611
16	0xbe746307	-0.23865901
17	0x3f24d90b	0.6439368
18	0x3eea9e99	0.45824125
19	0xbf0a4099	-0.5400482
20	0xbddadc2d	-0.106865264
21	0xbbf9ca5f	-0.0076230015
22	0x3c70d92c	0.014700215
23	0x3d9664a6	0.07343416
24	0x3e2fff3c	0.17187208
25	0x3e0e5a7a	0.13901702
26	0xbeaf0d16	-0.3418967
27	0x3e97e800	0.2966919
28	0xbf0dc751	-0.5538226
29	0xbe6fda57	-0.23423134
30	0xbe507a12	-0.20359066
31	0xbe2c3e70	-0.16820693

network.2.weight f4 [3, 32]
0	0xbe294d5a	-0.16533414
1	0xbe703744	-0.23458582
2	0x3d9a2822	0.07527186
3	0x3e2e4358	0.17017877
4	0xbe53981a	-0.20663491
5	0x3da4115a	0.08011122
6	0x3d60c181	0.05487204
7	0x3d8bbdf8	0.06823343
8	0xbdbcc7c9	-0.092177935
9	0xbdd3c546	-0.10340361
10	0xbd870eff	-0.06594657
11	0x3cd7f984	0.026364096
12	0x3d85d92b	0.06535562
13	0x3e60317d	0.21893878
14	0x3dbe1332	0.09281005
15	0xbcca80f5	-0.024719695
16	0xbe871621	-0.2638407
17	0x3bbd55ee	0.005778066
18	0x3e58aa8a	0.21158805
19	0xbd9b07c0	-0.075698376
20	0xbe1b25a9	-0.15151085
21	0xbd8632b6	-0.06552641
22	0xbdc711cb	-0.097201906
23	0xbd918941	-0.07106257
24	0x3d51c1a3	0.051210057
25	0x3e4811a7	0.19537984
26	0x3c37a58f	0.011208906
27	0xbdd3dba3	-0.10344627
28	0x3de1d54e	0.11027013
29	0xbe7827fe	-0.24234006
30	0x3d1bddc7	0.0380533
31	0xbe389f54	-0.18029529
32	0x3d8775c2	0.066142574
33	0xbe0a2557	-0.13490807
34	0xbe8967ad	-0.2683691
35	0xbe8407ab	-0.257871
36	0x3d883bf3	0.066520594
37	0xbdb626f5	-0.08894149
38	0xbe320694	-0.17385322
39	0xbc8c399c	-0.017117314
40	0xbe866cc4	-0.26254857
41	0x3d8d350b	0.06894883
42	0x3e855dc9	0.26048115
43	0x3c861429	0.016367035
44	0x3dab06a0	0.08350873
45	0xbd1882e1	-0.03723419
46	0xbda418be	-0.08012532
47	0x3cc398b1	0.02387652
48	0xbdfbe61a	-0.12299748
49	0xbe2d21d2	-0.16907433
50	0x3d571cd5	0.05251773
51	0xbd85005e	-0.06494211
52	0x3e09e829	0.13467468
53	0xbdcff88b	-0.10154828
54	0x3d49b75e	0.04924714
55	0xbcba5df5	-0.02274988
56	0x3aaacbdc	0.0013030726
57	0xbd3fb243	-0.046800863
58	0x3d2a71e0	0.041612506
59	0x3c815194	0.01578597
60	0xbe152cb7	-0.14567839
61	0x3e4c367e	0.19942662
62	0x3d85ad69	0.06527216
63	0x3e652058	0.2237562
64	0xbe5fa425	-0.2183996
65	0x3dd6645e	0.10468362
66	0xbcbcb969	-0.02303763
67	0xbe48bdee	-0.19603702
68	0xbcac70d4	-0.021049894
69	0x3e1dbe71	0.15404679
70	0xbc8e8624	-0.017397948
71	0xbdcb6d49	-0.09932954
72	0x3de4acaf	0.11165749
73	0x3e5858e0	0.21127653
74	0xbe7be58c	-0.24599284
75	0xbe58bb96	-0.21165308
76	0xbcb126f5	-0.021625021
77	0x3cf88a27	0.030339314
78	0xbe0ce8b7	-0.13760649
79	0x3e7695b8	0.2408055
80	0x3e2bb9c8	0.16770089
81	0xbd7d377b	-0.06182049
82	0xbdd39948	-0.103319705
83	0xbdd13ceb	-0.10216697
84	0xbd8ddb4f	-0.069265954
85	0xbe0b5247	-0.13605605
86	0x3dad7d28	0.08471137
87	0xbd713fbd	-0.058898676
88	0xbd8a9ad1	-0.0676781
89	0xbe3cc6ad	-0.18435164
90	0x3d74d689	0.05977491
91	0xbe6f2c2e	-0.23356697
92	0xbc4ff913	-0.012693661
93	0x3d938b1d	0.07204268
94	0x3e0ba5cf	0.1363747
95	0xbda62eaa	-0.08114369

network.2.bias f4 [3]
0	0xbd8d23b1	-0.06891573
1	0x3b1ee55a	0.002424559
2	0xbd231eab	-0.03982417
