snorkel/good_model_2.pth (torch, 30840 bytes, 4 tensors)

network.0.weight f4 [1024, 3]
000000 4f 8c 39 3c 7d 14 b0 3e a2 e6 ed be 5a 2f ee be
       0.011324956 0.3439063 -0.4646502 -0.465205
000010 51 d2 46 be ed cf 2a 3e 6f 2d 86 bd 19 7b fe 3e
       -0.19416167 0.1668088 -0.065516345 0.4970329
000020 c4 7b ad bd 47 5e 20 3e b9 0e 36 be c0 1a 26 be
       -0.08470872 0.15660964 -0.17779054 -0.16221142
000030 6b 56 07 bf 58 e5 d5 be 18 60 6c be c8 ff 1c 3d
       -0.5286624 -0.41776538 -0.23083532 0.03832987
000040 ef 70 88 3e 0f 68 bf 3e 55 6b c1 be aa 36 91 be
       0.26648661 0.37384078 -0.377772 -0.28362018
000050 11 2b 42 3e 9c 25 ec 3e 9d 01 8c bd 84 59 d4 3e
       0.18961741 0.46122444 -0.06836245 0.41474545
000060 9f b4 9f bd b8 ba 82 3d 9e 05 09 3f 20 2a 07 bf
       -0.077981226 0.0638327 0.53524196 -0.5279865
000070 92 62 b2 be c8 dd 22 be 2d 04 5a be 82 50 03 3f
       -0.34840828 -0.15904915 -0.21290655 0.5129472
000080 66 ae b8 be 41 b6 7b be 23 95 da be 46 45 07 bf
       -0.36070555 -0.24581243 -0.42691907 -0.5284008
000090 3f a4 be be 67 3b dd 3e 04 45 8a 3e 3c c1 86 3e
       -0.37234685 0.43209383 0.2700578 0.263193
0000a0 ca e3 b6 3c a8 77 99 be b4 ac ce 3d 6b 00 13 bf
       0.022325415 -0.29974103 0.10091534 -0.5742251
0000b0 42 0a d6 be fd 7d a9 be c5 dc b8 3e c4 3d b5 3e
       -0.418047 -0.33103934 0.36105934 0.35398686
0000c0 b8 06 69 be 72 55 6f 3d a7 21 d2 3e 0d 47 18 3f
       -0.22756469 0.058431096 0.410413 0.59483415
0000d0 c5 2e 62 3e 4f bf 97 3d 5f 87 ca 3e eb 97 a6 be
       0.22088154 0.07409536 0.39556405 -0.3253778
0000e0 8c a8 fc 3d 6c 85 e0 be d3 52 c5 be 7b 43 9d be
       0.12336835 -0.43851793 -0.38539752 -0.30715546
0000f0 b0 19 7e 3e de f8 7b 3e 26 b9 a9 be 2d d4 27 3e
       0.24814487 0.24606654 -0.3314907 0.16389532
000100 fd a2 ab 3e 12 1e 01 be 9a 9b b4 3c e2 66 c7 3d
       0.33522788 -0.12609127 0.022046853 0.0973642
000110 29 c8 c2 3e a3 d6 12 3f 90 36 da be d2 36 46 be
       0.38043335 0.5735876 -0.42619753 -0.1935685
000120 c6 1d 6f 3e 17 10 f3 3e de fc e4 3e a0 b7 04 3f
       0.23351201 0.47473213 0.44724172 0.5184269
000130 62 31 1f 3e 59 66 f3 be 88 50 15 3d fe 33 d9 be
       0.15546182 -0.47539023 0.036453754 -0.4242248
000140 1b cf 08 bf bf 0a 05 3f ea 4e eb 3e 6d be 10 bf
       -0.5344102 0.5196952 0.45958644 -0.56540567
000150 92 50 dd 3d 7a 30 c7 bd 4d 94 c2 bd 38 87 9a be
       0.10806383 -0.09726043 -0.095009424 -0.3018129
000160 79 9c 25 3e e0 8f c1 be 8d fe 48 3e 86 dd b2 3e
       0.16172971 -0.3780508 0.19628353 0.34934634
000170 10 30 c8 3e 0f e3 62 3e d1 08 16 bf c2 c7 b6 be
       0.3909917 0.22156928 -0.586072 -0.35699278
000180 27 96 8d 3e b0 f7 d0 3d d0 d6 ea be 79 6d bc be
       0.2765362 0.10203493 -0.45867014 -0.3680227
000190 b2 c0 03 3f ba 7e cd 3e 05 fc 97 be 82 d3 b1 bd
       0.51465905 0.40135747 -0.29684463 -0.0868292
0001a0 a9 11 15 bf e5 c4 6e bc 12 95 e2 be 55 17 e6 be
       -0.5823007 -0.0145733105 -0.44254357 -0.44939676
0001b0 3c fe 81 bd a4 04 b8 3d dd 0a 7f be 03 91 a2 3e
       -0.063473195 0.0898526 -0.24906488 0.3175126
0001c0 60 10 cb be e9 16 01 3f 1c 5f ca 3e 7c 08 fa be
       -0.3966093 0.50425583 0.39525688 -0.48834598
0001d0 87 8a fa bd df f0 0e 3c bd f2 ab 3d 9d aa 1f 3e
       -0.12233453 0.00872442 0.08395908 0.15592428
0001e0 5a c8 85 3e 61 8d 2f 3b c5 93 90 be 23 ad 8a 3e
       0.2612942 0.002678715 -0.2823774 0.27085218
0001f0 37 1f 0f bf cd 43 a5 be 82 54 ee bd ad 6f 93 be
       -0.55907005 -0.3227829 -0.11637212 -0.2879614
000200 5d 36 53 be 1d 52 f7 be 7e 47 ab bd f0 78 de 3d
       -0.20626207 -0.48304835 -0.083632454 0.10862911
000210 26 85 c4 be c1 e5 a2 bb 64 b9 d9 3e 44 04 b3 bd
       -0.38382834 -0.0049712365 0.42524254 -0.08741048
000220 09 9a f3 3b 9a 7a a9 bd 7a cc 01 3e b0 a3 c1 3e
       0.007434134 -0.082753375 0.12675658 0.37820196
000230 12 27 0c 3f d0 40 af 3e 97 b9 07 3f 45 f4 44 bd
       0.54747117 0.34229136 0.5301756 -0.048084516
000240 11 93 0b bf 66 fc 74 be 4c b2 cb 3e a3 94 52 3b
       -0.5452128 -0.23924407 0.39784467 0.0032132051
000250 34 e3 86 be 7c 2b db be d5 5e 0a bf 41 53 0c bf
       -0.26345217 -0.42806613 -0.5405095 -0.54814535
000260 d7 2b 20 be 43 55 b4 3e 90 00 90 3e b4 f0 0c bf
       -0.15641724 0.352213 0.2812543 -0.55054784
000270 6e 14 bc 3e 33 a7 dd be c9 ca 13 be cf b5 90 be
       0.36734337 -0.43291625 -0.14432825 -0.2826371
000280 21 2c 84 bd 72 72 35 be 7e 02 07 bf dd 00 02 bf
       -0.064537294 -0.17719439 -0.5273818 -0.5078257
000290 85 7c d6 bd bb 35 a0 3b b9 e0 94 be bf 19 6d 3e
       -0.10472969 0.0048892177 -0.290777 0.23154353
0002a0 ac 9b 0e bf 99 73 21 bd 3a d9 01 3f 11 cd 66 be
       -0.55706286 -0.039416883 0.50722086 -0.22539164
0002b0 1d e8 06 3f a3 a4 60 3e 3c e5 0b bf 1f 6a 9e 3e
       0.52697927 0.21937804 -0.5464666 0.3094034
0002c0 4d 70 d7 bd 41 3d 8e be 88 d6 d6 3e 33 e1 fe be
       -0.105194665 -0.27781108 0.4196055 -0.49781188
0002d0 f2 d3 10 3d 4e 11 38 be d3 9b c9 3e 64 26 3a 3e
       0.035358377 -0.17975351 0.39376697 0.18178707
0002e0 41 6f a9 3e 09 1c 46 3e 92 1f 2d be 29 02 e6 bd
       0.33092692 0.19346632 -0.16906574 -0.11230881
0002f0 2e 26 fd be 82 cd a6 3e f3 90 e3 3e 33 d1 bd 3e
       -0.4944319 0.32578665 0.44446525 0.3707367
000300 f6 24 d2 be 78 90 26 3d e2 a2 d7 be e3 c8 a1 be
       -0.41043824 0.04066512 -0.42116457 -0.31598577
000310 5e 7a b5 be 17 d0 58 3e 50 d8 d7 be cd 3b 30 3d
       -0.3544492 0.2117313 -0.4215722 0.04302578
000320 e5 55 34 ba ff b6 c0 3e 9f 1a eb be 0f ae c5 be
       -0.00068792544 0.37639615 -0.45918748 -0.3860936
000330 c0 53 ca be d0 f1 b1 3e 09 6e 6d be 48 fb 02 3f
       -0.3951702 0.347548 -0.23186506 0.51164675
000340 d0 fd 3c 3e e5 4e 86 3d f0 d4 4d bc a5 d9 e2 bd
       0.18456197 0.06558017 -0.012562975 -0.11076669
000350 62 49 a3 3d d1 10 1c be 4e fe 87 bb 59 c2 73 3d
       0.07972981 -0.1524079 -0.0041501885 0.059511516
000360 4d d3 e4 be 3c c0 8b be ea 1a e5 3e 1b d1 f5 be
       -0.4469246 -0.272951 0.44747096 -0.48011097
000370 15 f2 2a bd 12 b7 17 3f 00 ca 55 3e 93 68 d2 bc
       -0.041734774 0.5926372 0.20877838 -0.02568463
000380 16 da 02 bf 17 df 89 3e 43 40 d4 be 13 4c 26 be
       -0.5111402 0.26928017 -0.41455278 -0.16239958
000390 09 3e 40 be c9 f6 a2 bd b4 38 cf 39 61 01 e9 3e
       -0.18773665 -0.07957227 0.00039524364 0.45508865
0003a0 cd bf dc 3d 00 2f f9 3e cc 30 b7 3e 65 fd bd be
       0.107787706 0.4866867 0.35779417 -0.37107387
0003b0 1f 3a 84 3e 4f 6b df be 11 91 3f be 36 4d 28 3e
       0.25825593 -0.43636557 -0.18707682 0.16435704
0003c0 d4 b1 82 3e d7 89 04 3f 89 f3 db bd 21 1c 77 bd
       0.25526297 0.51772827 -0.1073981 -0.06032956
0003d0 b2 ea 92 3e 9e f5 17 bf ae 70 d8 3e a2 8c ed be
       0.28694683 -0.5935916 0.42273468 -0.46396357
0003e0 e1 c5 71 3c 4b 34 93 bd fb 51 94 be 7f 7b ab 3d
       0.014756651 -0.071877085 -0.28968796 0.083731644
0003f0 4f ad ef 3e 1b b7 63 be 80 7e b4 be b2 d6 45 be
       0.4681191 -0.22237818 -0.35252762 -0.19320181

network.0.bias f4 [1024]
000000 74 8f 0a 3f eb 3b e5 3e 83 41 02 bf d4 b2 3c be
       0.5412514 0.44772276 -0.5088121 -0.18427593
000010 83 96 8e 3e 65 b1 9d be f4 79 c6 3d 74 7f 93 be
       0.27849206 -0.30799404 0.096912295 -0.28808177
000020 f9 0c 11 3e f9 a8 82 3e 20 4f 2c 3e 22 a6 c2 3e
       0.14165105 0.2551954 0.16827059 0.38017374
000030 2f 26 92 bd be e4 ab 3e bb 27 21 3e c7 98 2b be
       -0.07136189 0.33572954 0.15737812 -0.16757499
000040 71 26 bb be 48 b9 01 3f d2 99 07 be 30 49 d1 3e
       -0.36552766 0.5067334 -0.13242272 0.4087615
000050 96 c0 b7 3e 9b a2 2f bc 37 ce ed be 39 6d 66 3d
       0.3588912 -0.0107199205 -0.46446392 0.056256507
000060 4e a8 a4 be 9d 6b 34 3e cb 09 80 be 7d 0c f8 3e
       -0.32159656 0.17619176 -0.2500747 0.48447028
000070 1d 5a 05 bf 07 90 48 be a3 22 92 3d 07 b1 80 3d
       -0.52090627 -0.19586192 0.07135513 0.06283765
000080 6d f7 e9 3e 6a 89 04 be 0f 48 df be 6e 5e b8 3e
       0.45696583 -0.12943044 -0.43609664 0.36009544
000090 88 4b 09 3e 68 b3 d1 3e bc 46 ae be cd e7 aa be
       0.13407719 0.4095719 -0.3403834 -0.33379975
0000a0 29 8b 69 be aa 2f 43 3d 82 f8 19 3e 4d 6b b0 be
       -0.22806992 0.047652878 0.15036204 -0.34456864
0000b0 24 9e 23 bd a2 1f aa bd 69 00 0b 3f 7a cd 86 be
       -0.039945737 -0.08306815 0.542975 -0.2632864
0000c0 8b 06 0f 3f a0 50 bc be 35 67 4b be e5 dd df be
       0.5586936 -0.36780262 -0.19863589 -0.4372398
0000d0 29 06 d4 3e cc 7e bf be 50 5c 6e 3e f2 3a 5d be
       0.4141095 -0.37401426 0.23277402 -0.21604517
0000e0 56 2b 10 3f 1d 9d 0e 3e 5c e9 0a bf 93 9a 6e 3d
       0.56316125 0.13927121 -0.5426233 0.058252882
0000f0 3c 2f 99 3d 3b 4e 0c bf 54 bc 66 3d 5f 3c 0a 3f
       0.07479712 -0.5480687 0.056331947 0.5399837
000100 87 f9 42 3e 9e 77 1d bd f2 9a 2d be d3 2b 00 3e
       0.190405 -0.038444154 -0.16953638 0.12516718
000110 69 52 9a be fa f7 08 3f b4 17 09 3f cf 1f 76 3e
       -0.30141 0.5350338 0.53551793 0.24035572
000120 4f 14 6d be e6 b1 03 bf 79 96 a8 be ef 3b 14 3f
       -0.23152278 -0.51443326 -0.32927302 0.5790395
000130 d3 2e 09 bf 59 28 18 bf c3 c8 23 bd 4c ee 61 3e
       -0.53587073 -0.59436566 -0.039986383 0.2206356
000140 84 86 01 bf b2 f1 01 bf 8a 4d d3 bb f7 b8 59 be
       -0.5059588 -0.5075942 -0.0064484524 -0.21261965
000150 31 04 bf 3e 50 2f 1d 3e 02 96 ec be 03 7f 01 bf
       0.37307885 0.1535008 -0.46208197 -0.5058443
000160 44 7c bb 3e 26 4c 92 bd 99 ef 8d be 3d 5a 2d 3e
       0.36618245 -0.071434304 -0.2772186 0.16928954
000170 26 e9 c8 bd 69 85 7b 3e de 55 02 3e 9e 4c 68 be
       -0.098100945 0.2456261 0.12728068 -0.22685477
000180 db 20 f8 be 39 20 8e 3e 71 38 aa be bb b6 8e bd
       -0.48462567 0.2775896 -0.33246186 -0.06968447
000190 dd d3 ad 3d 39 b5 9e be e7 26 9d 3e 6e 94 cd be
       0.08487675 -0.30997637 0.30693743 -0.40152305
0001a0 4f d1 2e 3e ba 95 3c 3d e9 8c 5f 3e b4 87 13 bf
       0.17072032 0.046041228 0.21831097 -0.5762894
0001b0 6f 3b 9c 3c 24 a2 9c 3e d9 91 cd be 6a b5 fd 3d
       0.019071309 0.30592453 -0.40150335 0.123881176
0001c0 da 8e 3b bc 2a e2 ff 3e b5 a5 17 be a3 46 17 bc
       -0.011447633 0.49977237 -0.14809306 -0.00923315
0001d0 00 20 84 be e8 f1 0e be 17 c8 35 3e 64 3f 10 bf
       -0.25805664 -0.13959467 0.1775211 -0.56346726
0001e0 1d 45 da 3e b6 23 dc 3e 8b da 8d 3e bd 35 dd 3e
       0.42630854 0.42995995 0.27705798 0.43205062
0001f0 56 bc 2b be 7e 79 12 3e 74 c7 69 bb 35 42 bf be
       -0.16771063 0.14304158 -0.0035671862 -0.373552
000200 32 e5 4d be 77 e1 3c be f7 ab 19 be 12 fe ff be
       -0.20106962 -0.18445383 -0.15007006 -0.49998528
000210 53 b5 cd be 2b 4d 8d bd 5f 13 34 bd b4 b9 f9 be
       -0.40177402 -0.06899484 -0.043963786 -0.48774493
000220 a7 2d f4 3d 67 db ae 3e 24 48 ff 3e 3b 5a 04 3f
       0.1192277 0.34151766 0.49859726 0.5170018
000230 12 4a d3 be 5b e9 3e be 92 e2 85 be 52 82 cb 3d
       -0.4126745 -0.18643706 -0.26149422 0.09936966
000240 d0 51 07 3e 3f a3 34 3d fc 46 b0 3e 14 fb 94 3e
       0.13214803 0.044100996 0.34429157 0.29097807
000250 02 04 ad be d2 de b7 3e d8 28 bf 3e ab a9 b6 3d
       -0.3379212 0.35912186 0.3733585 0.0891908
000260 5f 8e 04 bf f1 ea bb be b0 03 34 3e cc 83 37 3e
       -0.5177974 -0.36702684 0.17579532 0.1792137
000270 31 2c 08 3f 68 ac 8b 3e 7e 8a 35 3e a4 d9 05 bd
       0.5319243 0.27279973 0.17728612 -0.03267826
000280 3d fa b5 3e 48 e6 5c be 8a 4e 8c 3e 5a c3 8f be
       0.3554248 -0.2157222 0.2740367 -0.2807873
000290 66 42 8e bc a3 18 a2 3e 19 a2 9c 3e 6f da fa bd
       -0.017365646 0.3165942 0.3059242 -0.12248694
0002a0 f8 e0 9d bc 41 5a b8 be 76 67 7f 3e a0 76 c2 3e
       -0.019272313 -0.36006358 0.24941811 0.3798113
0002b0 38 c3 3c 3e ca 7a 03 bf a0 1c d0 be 83 03 b4 3e
       0.18433845 -0.51359236 -0.4064684 0.3515893
0002c0 34 e0 8c bd eb 80 b9 3e e4 75 e7 3e 89 9d fc bd
       -0.06878701 0.3623117 0.4520713 -0.12334735
0002d0 99 17 9d be a6 01 f9 be a5 dd 6f 3e 27 1a 8c 3e
       -0.30682066 -0.4863407 0.23424394 0.27363703
0002e0 e2 b7 fd bd 4b c6 03 bf 4d bd bc be 9c fd 92 bd
       -0.123885885 -0.51474446 -0.36863175 -0.071772784
0002f0 51 9b 93 3e ca 82 1c be de 6c b0 be d8 16 bf be
       0.28829435 -0.15284267 -0.3445806 -0.37322116
000300 85 2e 07 3f e8 83 5e 3e c7 d4 f6 be 46 13 be be
       0.5280536 0.21730006 -0.4820921 -0.3712408
000310 89 06 09 bf 04 47 99 3d 0a 06 6e be ae 63 87 bc
       -0.53525597 0.07484248 -0.23244491 -0.016527023
000320 41 42 93 bd 1a 0f f9 be 3d 46 f7 be 04 4b cd be
       -0.07190371 -0.48644334 -0.48295775 -0.40096295
000330 f5 0c 8c be 83 e0 8a 3d ec 47 88 be 69 0e 37 bd
       -0.27353635 0.067811035 -0.26617372 -0.044691477
000340 e8 f3 c3 bd 0d fc 03 3f 7f e8 82 be 92 24 04 3f
       -0.09568006 0.51556474 -0.25568005 0.516183
000350 9d 9e ef be 66 ef ff be cf c8 2d 3e 52 da a4 be
       -0.468007 -0.49987334 0.16971134 -0.32197815
000360 62 1d 91 3e b1 c5 9f be 96 b0 e0 3e de 49 12 3f
       0.2834273 -0.31205514 0.43884724 0.5714396
000370 c4 74 44 3d e6 a1 05 3e 5d 38 07 3f 93 46 aa 3e
       0.04796292 0.1305004 0.5282038 0.3325697
000380 b8 7b 06 bf 7a a9 8e 3c 35 a0 03 bf 4b 21 d7 3e
       -0.5253253 0.017414797 -0.5141633 0.42017588
000390 cc ab 9a bd 51 f0 a1 bb 4b 45 ba be 29 3e b5 be
       -0.07552299 -0.004941978 -0.3638099 -0.35398987
0003a0 42 00 98 3d 5f 66 eb 3e 63 ba ad be 95 fa 97 3d
       0.07421924 0.4597654 -0.33931264 0.074208416
0003b0 78 e4 fa 3e 92 f6 03 3f 84 c8 c5 bd 87 9c 0c 3f
       0.49002433 0.5154811 -0.09657386 0.5492634
0003c0 49 b4 57 3e f3 ed 0c 3f ca 30 0d 3c fe 0d ec be
       0.21064867 0.5505058 0.008617589 -0.46104425
0003d0 db 5b 2c be 2f 4a 1c 3e 5d 8e a8 3e c5 3e 19 bf
       -0.16831915 0.15262674 0.32921115 -0.59861404
0003e0 98 c3 ff 3e a6 99 e3 be 65 e1 a0 3e 1d 56 0a 3f
       0.49953914 -0.44453162 0.31421962 0.5403765
0003f0 1d ab 2f 3e 0c 2e c8 bd 8c ac 98 3e 42 7b 08 be
       0.17155118 -0.09774408 0.29819143 -0.13328269

network.2.weight f4 [3, 1024]
000000 0a bc d5 3c f1 2f 73 bc 1e 4c a9 bd e9 a8 e2 3b
       0.02609064 -0.014842973 -0.08266471 0.0069171083
000010 e6 3c ff bb 04 d3 fb 3c 32 09 95 bb 1f c6 87 bc
       -0.007789242 0.030740269 -0.0045482153 -0.016573964
000020 c4 11 55 3d d3 2b 8e 3c a4 0e df 3b 6e 0a b3 3b
       0.052018896 0.017354881 0.006807165 0.00546389
000030 7a 96 78 bd e2 e4 10 3a c2 ed 3b bd dd 2c 44 bd
       -0.06069038 0.000552727 -0.04588104 -0.047894347
000040 bc 87 63 bc 97 63 13 3d 42 c7 b8 3c fd 70 08 3c
       -0.013887342 0.03598365 0.022555951 0.00832772
000050 9f b4 45 3c a3 be 0f 3d d1 f0 4b bc 7d 3e 0f bc
       0.012066989 0.035093915 -0.012447552 -0.008742926
000060 94 c9 ed 3c 4e 30 d4 3c e9 27 3a bd fb 17 57 3d
       0.029026784 0.02590194 -0.045448218 0.052513104
000070 20 b4 4e bb ba c4 21 3b dd 05 b0 bc c9 71 6b bc
       -0.0031540468 0.0024683909 -0.02148717 -0.01437039
000080 17 a9 69 3b 29 47 57 bd 69 2e ee bb fb 7c ca bb
       0.0035653764 -0.052558098 -0.007268716 -0.0061794496
000090 0e a5 cb bc 37 2d eb bb fc 9f 95 3c 98 a8 56 bd
       -0.024858978 -0.007177021 0.018264763 -0.052406877
0000a0 24 9d b5 bd 9c 93 07 bc 28 56 37 bb a9 0e 86 3c
       -0.08867863 -0.008274939 -0.0027974937 0.016364412
0000b0 b5 75 0d bc 27 8c 26 3c ea d7 db 3c cb 03 36 bc
       -0.008634021 0.010165251 0.026836354 -0.011109303
0000c0 78 24 d8 bc d8 09 c1 3a 21 e4 1b bd bf 2b a3 bc
       -0.026384577 0.0014727665 -0.038059358 -0.01991832
0000d0 37 00 02 3d b5 3c b1 bc 91 59 c4 bc 03 11 91 3d
       0.031738486 -0.021635393 -0.02396849 0.07083323
0000e0 f7 c0 8b bc ec df 94 bc e1 e8 e3 bc 44 21 08 bb
       -0.017059786 -0.01817318 -0.027821006 -0.002077178
0000f0 c4 a9 85 ba 60 18 85 3d 08 c1 02 3c 54 62 0f 3c
       -0.0010197689 0.0649879 0.007980593 0.008751471
000100 c0 c3 2d bd 1c 6e 14 3b 5a 3a c3 bb 19 04 92 bc
       -0.04242301 0.0022648638 -0.005957884 -0.01782422
000110 cf d6 93 bb b1 e9 94 3c 40 fb 1b bb 58 cf b8 bc
       -0.004511691 0.018177839 -0.002380088 -0.022559807
000120 3d 53 fc bb c3 32 d3 3a 5f b5 d5 bc f9 29 73 bc
       -0.0077003525 0.0016113151 -0.026087461 -0.01484155
000130 a7 06 8a 3c 3e f4 e5 3b 98 8c 72 3c 28 6e 07 bc
       0.016848875 0.0070176413 0.014804028 -0.008266009
000140 51 b0 7a 3d a8 75 86 3c 0d bd 57 3c 83 ed 97 3c
       0.061203305 0.016413525 0.013167632 0.018545872
000150 2f 36 11 bc 6f b0 73 3c 43 25 58 bd b2 42 4f 3c
       -0.008863016 0.014873608 -0.05276991 0.012650179
000160 9c 17 83 bc f1 b7 db bb 13 27 5e 3c d7 d7 07 bd
       -0.016002469 -0.006705277 0.013559121 -0.033164825
000170 9f ab e6 3c e3 ec c3 bc dd 89 7b 3c 20 15 70 3c
       0.028158007 -0.023916667 0.015352693 0.014653474
000180 c7 00 fe bc cc b7 0b 3d a6 7c 9a 3c 47 5e 06 bd
       -0.03100623 0.03411083 0.018858265 -0.032804754
000190 13 55 0c bd bd db 10 bc cb 9e 6c 3c 48 53 55 bd
       -0.03426082 -0.008841452 0.014442156 -0.052081376
0001a0 b0 83 2b 3d 9a b1 ec 3b 6a 4d 7f bb 2e 50 41 3d
       0.041873634 0.00722332 -0.0038956054 0.047195606
0001b0 7a 45 03 bc 39 cf ec 3c 8c 7b a6 3c 4c 84 62 ba
       -0.00801217 0.028907405 0.020322584 -0.00086409296
0001c0 a1 bb 01 3c 09 51 00 3d 15 79 ad bc 6d 43 46 3b
       0.007918269 0.03132728 -0.0211759 0.0030252591
0001d0 fa 41 44 bc da b7 5a bc 5f 42 2c 3d 90 62 52 3c
       -0.011978621 -0.013349498 0.042055484 0.012840882
0001e0 a9 3d 11 bd e4 56 ae 3c f2 53 c9 3c 0b d3 f0 3c
       -0.035459194 0.021281667 0.024576161 0.029397508
0001f0 8d 21 b9 bc d2 db 72 3b 2f b2 5c bc f9 8d 04 bd
       -0.022599006 0.0037057293 -0.013470217 -0.03236196
000200 49 16 9d 3c 37 80 f9 3c 01 77 85 3c af 0f 57 3d
       0.019175665 0.030456645 0.016292097 0.05250519
000210 04 f7 8a bd 09 6b 7e 3c a5 fd 44 bd 69 13 e9 bc
       -0.06785396 0.015528449 -0.048093457 -0.028451638
000220 cc f7 6f 3c c7 cd c3 3c e0 f1 2a bd d1 9b 4a 3b
       0.014646482 0.023901833 -0.041734576 0.0030915628
000230 a2 e7 93 3b a1 50 3e bc c3 03 13 bd 49 1f 70 bc
       0.004513697 -0.011615903 -0.03589226 -0.014655896
000240 8e 3c 8a bb b8 33 86 bb d1 12 e8 bb 05 80 42 3c
       -0.0042186445 -0.004095521 -0.007082321 0.011871343
000250 a2 3c ac bc 38 e8 3b 38 3f 9a aa 3b ae 9d 3f 3c
       -0.021025006 4.4800545e-05 0.005206376 0.011695309
000260 32 4b 98 bc ac 35 36 bb ee dc a5 3c d7 bd 35 bc
       -0.018590543 -0.0027802987 0.020246949 -0.011092625
000270 c5 d1 24 bd eb be 82 bc 7d 4b e0 bc 97 81 4e 3c
       -0.040239114 -0.015960177 -0.027379746 0.012604139
000280 91 4a 79 3c a8 b5 d7 ba fa 23 d1 3c 7d 5f 50 3d
       0.015215532 -0.0016457336 0.02552985 0.050872315
000290 28 7d 95 bc ee e8 08 bd 00 40 f7 3c cd a1 b5 3c
       -0.018248156 -0.033425264 0.030181885 0.02217188
0002a0 86 c1 b6 bb 8a e0 7d ba 8e 19 16 bd df e5 2b ba
       -0.005577269 -0.0009684643 -0.036645465 -0.0006557386
0002b0 22 83 13 bc de 1f c9 bd 46 cb 01 bd 41 6b b4 3b
       -0.0090034325 -0.09820531 -0.031687997 0.0055059497
0002c0 3a 48 ab bb 13 69 ae 3c b0 c2 2d bd d9 d9 c6 bc
       -0.005227116 0.021290338 -0.042421997 -0.0242738
0002d0 ec 24 a3 bc ca 3c 00 bd 69 08 28 3c c0 bf 7b bc
       -0.019915067 -0.031307973 0.010255911 -0.015365541
0002e0 16 7e 8e bc 60 a4 a9 bc 0d 98 7a bd 10 9b 15 bc
       -0.017394107 -0.020708263 -0.061180163 -0.009131208
0002f0 cd a7 95 3b b6 7a f0 bc 77 20 81 3c 7d 58 04 3c
       0.0045671226 -0.029355388 0.01576255 0.008077738
000300 84 2a 9e bc 9e 3e 0b 3c db bd 0f ba c0 38 e4 b8
       -0.019307382 0.008498816 -0.0005483308 -0.00010882458
000310 4c e6 84 3c ed 44 00 bc 24 94 ac bc 0e 15 7f 3c
       0.016223095 -0.007828933 -0.021066733 0.015568985
000320 87 b5 17 bd 8b 77 81 3c aa 52 b2 bb e8 51 54 3b
       -0.037038352 0.015804073 -0.005441983 0.0032397453
000330 8b a5 29 3c 50 ee 78 bc 45 1f b2 bc e3 58 53 bc
       0.01035441 -0.015193537 -0.021743426 -0.01289961
000340 3e b8 aa 3c 1f 63 5c bc 09 29 2b 3c 7e 4f 08 3c
       0.020839807 -0.013451367 0.010446795 0.008319734
000350 1c ed 4d bb 6c 40 8b bc 02 74 8f bb 93 1a db 3c
       -0.0031421846 -0.016998492 -0.004377843 0.02674607
000360 8c 32 29 bd 33 0e a5 bc 1e 03 3d 3b 5a a6 cc 3c
       -0.04130797 -0.020148372 0.002884097 0.024981666
000370 9c 12 e5 bb ad c2 a2 bb e4 d6 74 bc 5f 81 ea 3c
       -0.006990744 -0.004967055 -0.014943812 0.028626142
000380 69 61 b3 bc f8 3c 00 3d 3c c9 9f 38 bb de 9a bc
       -0.021897035 0.031308144 7.619194e-05 -0.018905034
000390 2d 50 a8 3c 43 85 08 3c e0 23 33 3d 15 b9 88 bd
       0.020546043 0.008332553 0.043735385 -0.066759266
0003a0 7a 0d 23 3c 65 a5 32 bc c6 a5 a5 3c c9 68 36 3d
       0.0099519435 -0.010903691 0.020220648 0.044533525
0003b0 7e e1 ec bc 43 5b 43 bc 65 09 fa 3c 55 8a 04 3d
       -0.028916117 -0.011923614 0.030522058 0.032358486
0003c0 16 46 a2 bc 8b bb 86 3c c8 a4 5d 3b 20 bb 84 bb
       -0.01980881 0.01644685 0.003382014 -0.0040506274
0003d0 b6 12 f5 3b fe 89 8a 3c 5f c2 17 3c 47 5e bc bd
       0.007479037 0.016911503 0.00926265 -0.091976695
0003e0 47 a9 48 bc 38 f8 6b 3c 32 ef dc 38 a0 55 73 bc
       -0.01224739 0.014402442 0.00010534971 -0.014851958
0003f0 03 11 06 bc 7c 7e e3 bc 55 9a 88 ba a1 d3 01 bc
       -0.008182767 -0.027770273 -0.0010421971 -0.007923991

network.2.bias f4 [3]
000000 eb 01 4a bc 34 3c 06 bd 49 c7 d8 3c
       -0.012329559 -0.032772258 0.026462214
