snorkel/good_model_1.pth (torch, 12474 bytes, 6 tensors)

network.0.weight f4 [64, 3]
0	0x3d525898	0.05135402
1	0x3e84b0ac	0.2591604
2	0xbee12d00	-0.43979645
3	0xbf00a9c5	-0.5025905
4	0xbe112689	-0.14174856
5	0x3e5d8f7b	0.21636765
6	0xbdcd1e2f	-0.10015523
7	0x3f07d897	0.53064865
8	0xbdf0dd94	-0.11761013
9	0x3e3b3fad	0.18286009
10	0xbe4e7c58	-0.20164621
11	0xbd55b783	-0.052176964
12	0xbf129375	-0.5725625
13	0xbe995ca9	-0.29953507
14	0xbe8c0812	-0.27349907
15	0x3daf2805	0.08552555
16	0x3e49f16f	0.19721006
17	0x3ed98f4d	0.42492142
18	0xbee6f01e	-0.4510507
19	0xbeb709b3	-0.35749587
20	0x3e896f4b	0.26842722
21	0x3f0caa5b	0.5494744
22	0xbdd0ca60	-0.1019485
23	0x3f01227e	0.50443256
24	0xbe243a11	-0.16037776
25	0x3dbfd7e1	0.093673475
26	0x3f175cbb	0.5912587
27	0xbf1bee27	-0.60910267
28	0xbe88c168	-0.26710057
29	0xbdfa217a	-0.122134164
30	0xbeb1da3b	-0.3473681
31	0x3ee468ff	0.44611356
32	0xbef21645	-0.47282615
33	0xbeaf0ede	-0.3419103
34	0xbed7da3d	-0.4215869
35	0xbf170df9	-0.59005696
36	0xbeca62f9	-0.39528635
37	0x3f17f654	0.5936024
38	0x3eb2be0c	0.3491062
39	0x3eb463d2	0.35232407
40	0x3d2e8433	0.042606544
41	0xbe805418	-0.25064158
42	0xbc004d32	-0.007830905
43	0xbeefe634	-0.4685532
44	0xbf046088	-0.51709795
45	0xbe82f62f	-0.25578448
46	0x3ec27558	0.3798015
47	0x3ed158db	0.40888104
48	0xbeb1ba75	-0.34712568
49	0xbdba4e80	-0.09097004
50	0x3ee844ce	0.45364994
51	0x3f261c8c	0.6488731
52	0x3e508f88	0.20367253
53	0x3e28bed5	0.16479047
54	0x3ef2dec8	0.47435594
55	0xbe9cde99	-0.3063858
56	0x3e55f380	0.20893669
57	0xbf01e9c1	-0.50747305
58	0xbef56d40	-0.47934914
59	0xbe9609bb	-0.293043
60	0x3e4374e6	0.19087562
61	0x3e1991b9	0.14996995
62	0xbedf1d13	-0.4357687
63	0x3e2c8380	0.16847038
64	0x3e87604c	0.26440656
65	0xbdad7d02	-0.08471109
66	0x3daa3e33	0.08312645
67	0x3e289cbd	0.16466041
68	0x3ee5e12e	0.4489836
69	0x3f1c6df2	0.61105263
70	0xbee02330	-0.43776846
71	0xbe19add1	-0.15007712
72	0x3e9e88e6	0.3096382
73	0x3f128bfb	0.57244843
74	0x3f125caa	0.57172644
75	0x3f11c8a2	0.56946766
76	0x3dd111f7	0.10208505
77	0xbefcdda1	-0.4938784
78	0x3dc6f983	0.09715559
79	0xbece5b1c	-0.40303886
80	0xbf02ccc2	-0.51093686
81	0x3eeef4d7	0.46671173
82	0x3f00e1f8	0.503448
83	0xbf25cf31	-0.64769274
84	0x3e44e02c	0.1922614
85	0xbd4c473f	-0.049872633
86	0x3be3d294	0.006952593
87	0xbeb4171f	-0.3517389
88	0x3e110c90	0.14164948
89	0xbed0441c	-0.40676963
90	0x3e615dc7	0.2200843
91	0x3e8414dc	0.25797164
92	0x3efcb852	0.49359375
93	0x3e7b7d28	0.24559462
94	0xbf1d4391	-0.61431223
95	0xbed4a9a1	-0.41535667
96	0x3e81be4f	0.25340506
97	0x3e0a878c	0.1352827
98	0xbf0a4791	-0.5401545
99	0xbecf8626	-0.40532035
100	0x3f2017eb	0.62536496
101	0x3eb83d44	0.35984242
102	0xbebab64a	-0.364672
103	0xbe035cc1	-0.12828352
104	0xbf289163	-0.6584684
105	0xbdd89a05	-0.10576252
106	0xbeea72b3	-0.45790634
107	0xbefa5a24	-0.48896897
108	0xbe11e52a	-0.14247575
109	0x3d90fe3a	0.0707974
110	0xbeadff33	-0.33983764
111	0x3ed1db28	0.40987515
112	0xbebaa7bc	-0.36456096
113	0x3f150c9b	0.5822236
114	0x3ee8ca0e	0.45466655
115	0xbeef32ae	-0.46718353
116	0xbdd8ef77	-0.10592549
117	0x3dccccac	0.099999756
118	0x3d812b2b	0.06307062
119	0x3e5b14a7	0.21394597
120	0x3e053138	0.13007057
121	0x3d6d6c11	0.05796439
122	0xbebb7048	-0.366091
123	0x3e5f6ae8	0.21818125
124	0xbf00a250	-0.5024767
125	0xbed075e3	-0.4071494
126	0xbe699722	-0.22811559
127	0xbe564591	-0.20924975
128	0xbe951e11	-0.291245
129	0xbec70167	-0.38868257
130	0xbe5442d8	-0.20728624
131	0x3e345326	0.17609844
132	0xbecced32	-0.40024716
133	0xbd715655	-0.058920223
134	0x3eff80a6	0.49902838
135	0xbd731ad2	-0.05935175
136	0x3c837292	0.016045842
137	0xbd4c02d1	-0.049807373
138	0x3de2e9a1	0.110797174
139	0x3ed6775d	0.41887942
140	0x3f18359e	0.59456813
141	0x3ebcc580	0.3686943
142	0x3f2101e1	0.6289349
143	0xbc1fd833	-0.009756136
144	0xbf19f8a5	-0.60145026
145	0xbe47b7fe	-0.19503781
146	0x3eda3b02	0.42623144
147	0xbda261bc	-0.079287976
148	0xbe533be4	-0.20628315
149	0xbf057f8b	-0.5214774
150	0xbf1ee4f1	-0.62068087
151	0xbf0b1d95	-0.54342014
152	0xbe667559	-0.22505702
153	0x3eb26d1f	0.34848878
154	0x3ea5375f	0.32268807
155	0xbf15dbaf	-0.58538336
156	0x3ed90a72	0.42390782
157	0xbee498fc	-0.44647968
158	0xbd6de3ec	-0.05807869
159	0xbeb167c4	-0.3464948
160	0xbdd1526c	-0.10220799
161	0xbe74ad76	-0.23894295
162	0xbf16e774	-0.5894692
163	0xbee5f609	-0.44914272
164	0xbe24c840	-0.16092014
165	0xbd8b404c	-0.06799373
166	0xbea08436	-0.3135087
167	0x3e060748	0.13088715
168	0xbf1b38bb	-0.6063344
169	0xbdbb9d2f	-0.0916084
170	0x3f16d728	0.5892205
171	0xbe70a517	-0.23500477
172	0x3f05695f	0.5211391
173	0x3e9f7c2e	0.3114943
174	0xbf1dae97	-0.6159453
175	0x3ed8f01a	0.42370683
176	0xbe2747eb	-0.16336028
177	0xbea17692	-0.31535774
178	0x3ebd6925	0.3699428
179	0xbf0cde4b	-0.5502669
180	0x3d22594f	0.039635953
181	0xbda2c9e0	-0.07948661
182	0x3eff4f82	0.49865347
183	0x3e6ee2c5	0.23328693
184	0x3eb03742	0.34417158
185	0x3e8d94f7	0.27652714
186	0xbe6c7993	-0.23093252
187	0xbdba3dba	-0.09093805
188	0xbf126fe1	-0.57201964
189	0x3ec3747c	0.38174808
190	0x3f037d76	0.51363313
191	0x3eef4735	0.46734014

network.0.bias f4 [64]
0	0xbee427a1	-0.44561484
1	0x3e02e3aa	0.1278216
2	0xbea5bc30	-0.32370138
3	0xbe973a71	-0.29536775
4	0xbeb35eb1	-0.3503318
5	0x3e96114c	0.2931007
6	0xbe833010	-0.25622606
7	0x3d89de97	0.06731909
8	0x3deef13c	0.116671056
9	0x3eec5c9b	0.46164402
10	0xbeabed8e	-0.33579677
11	0xbeafb06d	-0.3431429
12	0xbe6fa5a4	-0.2340303
13	0x3ef9a613	0.48759517
14	0xbe027b8c	-0.12742442
15	0x3f0e6df1	0.5563651
16	0x3e996f6d	0.29967824
17	0x3e25ff97	0.16210781
18	0x3dc4d2c9	0.096105166
19	0xbd50faff	-0.05102062
20	0x3d726af0	0.059184015
21	0xbe51d8f3	-0.20492916
22	0x3dc86692	0.09785189
23	0x3e11fa16	0.14255556
24	0xbebd109c	-0.36926734
25	0xbe6fb9d9	-0.23410739
26	0x3f0a456b	0.54012173
27	0xbed15eac	-0.4089254
28	0x3d6d1449	0.057880674
29	0x3f1c2d8d	0.61007005
30	0x3e9d4704	0.30718243
31	0x3da849ce	0.08217202
32	0xbed74970	-0.42048216
33	0x3e9044f9	0.28177622
34	0xbea249cd	-0.3169693
35	0xbdf6bdfe	-0.12047957
36	0xbdc82bb3	-0.0977396
37	0xbc3eb014	-0.01163866
38	0x3da6ebb9	0.08150429
39	0x3f0fa723	0.56114405
40	0x3e120f1d	0.14263578
41	0x3eea7dcb	0.45799097
42	0x3eb7ab8a	0.3587306
43	0xbed9ec03	-0.42562875
44	0x3ea6571e	0.3248834
45	0xbed0f5f9	-0.40812662
46	0xbe452a1b	-0.19254343
47	0x3e64da7c	0.2234897
48	0x3e5d5227	0.2161337
49	0x3ebd96ce	0.37029117
50	0xbddc3c1d	-0.10753653
51	0x3da61a04	0.08110431
52	0x3ec3236b	0.3811296
53	0xbee61901	-0.4494095
54	0x3ee48f36	0.4464051
55	0xbee9e361	-0.4568129
56	0x3dc35be0	0.09539008
57	0xbd9092a9	-0.07059223
58	0xbe7055e9	-0.23470272
59	0x3de2dec9	0.11077649
60	0x3f141533	0.5784485
61	0xbdabf9ac	-0.083972305
62	0xbe823028	-0.25427365
63	0xbe0f253a	-0.13979045

network.2.weight f4 [32, 64]
0	0xbd4fb498	-0.050709337
1	0x3e0d580f	0.13803123
2	0x3ce792c4	0.028268225
3	0xbd1f8fc5	-0.03895547
4	0x3ca3bd34	0.01998768
5	0xbc80ab93	-0.015706813
6	0x3da9b3bb	0.08286234
7	0xbb7ae080	-0.0038280785
8	0xbc513848	-0.012769766
9	0x3d4c2679	0.049841378
10	0x3d570701	0.052496914
11	0x3e0d9d84	0.13829619
12	0x3e4ab2cf	0.19794773
13	0x3dd76bfb	0.105186425
14	0x3d246c57	0.040142383
15	0x3b3b8b53	0.002861698
16	0xbd90a918	-0.07063502
17	0xbd82987a	-0.06376739
18	0xbe1fa959	-0.15591945
19	0xbc7190cb	-0.014743994
20	0x3e42a366	0.19007644
21	0xbd35ef62	-0.044417746
22	0xbde0e786	-0.109816596
23	0x3dab7e73	0.08373728
24	0xbd8f2625	-0.06989697
25	0xbc565fbd	-0.013084349
26	0xbc3f939a	-0.011692906
27	0x3e3036ee	0.17208454
28	0x3d9aadbd	0.07552669
29	0x3e476495	0.19471963
30	0xbe0a5af1	-0.13511254
31	0x3e0588cc	0.13040465
32	0x3d72428b	0.05914549
33	0x3d92c8c1	0.07167197
34	0x3cb656ea	0.02225824
35	0x3e11e6cd	0.142482
36	0x3e0c1905	0.13681419
37	0xbdd88429	-0.105720825
38	0x3cb3ed6f	0.021963803
39	0xbd3de7e7	-0.046363737
40	0x3e303a91	0.17209841
41	0xbc106240	-0.008812487
42	0x3e13f41b	0.14448588
43	0xb96b6eb0	-0.00022452581
44	0xb97dd1a7	-0.00024206062
45	0x3cb7f4e0	0.022455633
46	0xbe091a59	-0.13388957
47	0x3d61479e	0.05499994
48	0x3dc3e235	0.0956463
49	0xba95e525	-0.0011436088
50	0x3dddae85	0.108243026
51	0x3e08dd2b	0.13365619
52	0x3dcb7b8c	0.09935674
53	0x3dc10692	0.09425081
54	0xbc651b4f	-0.013983562
55	0xbdaa5ec3	-0.083188556
56	0x3dd16466	0.102242276
57	0x3d06d088	0.032913715
58	0x3e142814	0.14468414
59	0x3e318691	0.1733649
60	0xbe1a8952	-0.15091446
61	0xbd9ca7c8	-0.07649189
62	0x3e199ced	0.15001269
63	0xbd8a8c83	-0.06765082
64	0xbd51cbec	-0.051219866
65	0x3cadb0d8	0.02120249
66	0xbe287d2c	-0.16454
67	0x3d891684	0.06693748
68	0x3d90e7ee	0.07075487
69	0x3e4069af	0.18790315
70	0x3de80b34	0.11330262
71	0x3da6f16a	0.08151515
72	0x3e0de3ba	0.13856402
73	0xbd8b6768	-0.068068326
74	0xbe2abce0	-0.16673613
75	0xbe459ff1	-0.19299294
76	0x3d84d8fc	0.06486699
77	0x3e18505a	0.14874402
78	0xbdb6a23b	-0.08917662
79	0x3e1732f5	0.14765532
80	0x3e33b552	0.17549637
81	0x3e41fffe	0.1894531
82	0x3e3361fb	0.17517845
83	0x3d4f3412	0.050586767
84	0xbc8211d7	-0.015877647
85	0x3c1a7e2b	0.009429495
86	0x3e34eb04	0.17667776
87	0x3e059b06	0.13047418
88	0xbc2d6688	-0.010583527
89	0x3e0bda09	0.13657393
90	0x3e06e71d	0.131741
91	0x3d42a049	0.04751614
92	0xbb07e364	-0.00207349
93	0xbc5a0495	-0.0133067565
94	0x3cc0d414	0.023538627
95	0x3e215f4f	0.15759014
96	0xbdd0dde9	-0.10198576
97	0x3d0ce496	0.034397684
98	0xbd5594ba	-0.05214379
99	0xbcf0ac12	-0.029378925
100	0xbdeaa7a5	-0.11457757
101	0x3e01a2a8	0.12659705
102	0xbcd3187c	-0.025768511
103	0x3dd8ac4f	0.1057974
104	0xbd59755d	-0.053090442
105	0xbd8151ff	-0.06314468
106	0xbd8329b3	-0.06404438
107	0x3dd9d6ab	0.10636648
108	0x3def1a5f	0.11674952
109	0x3df02ee8	0.11727697
110	0x3e2334a2	0.15938047
111	0xbd4152f8	-0.047198266
112	0xbd81948e	-0.06327163
113	0xbc9ff327	-0.019525124
114	0xbdb77256	-0.08957355
115	0x3dc50073	0.09619226
116	0xbcecb287	-0.028893722
117	0xbddabfdf	-0.10681128
118	0xbd98b8be	-0.07457112
119	0x3c65f262	0.014034839
120	0x3dadd486	0.08487801
121	0x3d7df0e7	0.06199732
122	0x3ceb377a	0.028712977
123	0x3d14d5c3	0.03633667
124	0x3e3b8f8c	0.18316478
125	0x3d0f3917	0.034966554
126	0xbcbefa7b	-0.023312798
127	0x3e322ee7	0.17400704
128	0xbbdcc85a	-0.006737751
129	0x3d83b4b4	0.06430951
130	0xbb556182	-0.003255934
131	0x3dbff20f	0.09372341
132	0xbd82d7bb	-0.063888036
133	0x3e1120ff	0.14172743
134	0xbd3bcacd	-0.045847703
135	0x3d63befa	0.05560205
136	0xbc8181ed	-0.015809024
137	0xbdd58c3f	-0.104271404
138	0xbe22d642	-0.15902045
139	0x3d3c0f7c	0.045913205
140	0xbbf02f33	-0.0073298453
141	0x3d3958e3	0.045250785
142	0xbde9af0d	-0.114103414
143	0x3e19133f	0.14948748
144	0x3d09e534	0.03366585
145	0x3dbc83f1	0.09204853
146	0x3cf2c317	0.029634042
147	0x3d9b1f90	0.075743794
148	0x3d56ee99	0.05247364
149	0xbcc31974	-0.023815848
150	0x3e497bd9	0.1967615
151	0x3e2230c8	0.15838921
152	0x3ca75c87	0.020429863
153	0x3da38914	0.0798513
154	0xbd9884e0	-0.07447219
155	0xbc3f3156	-0.011669477
156	0x3e2cd203	0.16876988
157	0xbd10bf7e	-0.03533887
158	0xbc1f8388	-0.009735949
159	0xbd082d96	-0.0332466
160	0xbdd38316	-0.10327737
161	0xbd8de0b1	-0.06927622
162	0xbcf4b98c	-0.029873632
163	0x3d949850	0.07255614
164	0xbd6b22da	-0.057406284
165	0x3c07a052	0.008277969
166	0x3d8146fe	0.06312369
167	0x3e127c21	0.14305164
168	0x3d84f77b	0.06492516
169	0xbdb08093	-0.086182736
170	0xbd3fe954	-0.04685338
171	0xbdf373f3	-0.1188735
172	0xbde4a4d8	-0.11164254
173	0x3d387860	0.045036674
174	0xbd136a10	-0.03598982
175	0x3dfe07d7	0.12403839
176	0x3d124694	0.03571184
177	0xbc915970	-0.017742842
178	0xbe020651	-0.12697722
179	0xbd1f20f5	-0.03884979
180	0x3dbb2584	0.09138015
181	0xbde2bcc0	-0.110711575
182	0x3d1b1431	0.037861053
183	0xbd17b037	-0.037033286
184	0xbe5a92aa	-0.2134501
185	0xbe4f36d5	-0.2023576
186	0xbdbdbee1	-0.09264923
187	0x3cfa7c67	0.030576898
188	0xbd002bb4	-0.03129168
189	0x3e34dfd0	0.17663503
190	0xbdc35353	-0.09537377
191	0x3dda32e3	0.10654237
192	0xbd0a450d	-0.03375726
193	0xbd21caa7	-0.039499905
194	0x3e1f9724	0.15585
195	0x3d78f190	0.060777247
196	0x3dcba94e	0.09944402
197	0x3de267b4	0.11054936
198	0xbc95e7f0	-0.018299073
199	0x3d8ea3c7	0.06964832
200	0x3da985b5	0.08277456
201	0x3e016925	0.12637766
202	0xbe27bb0c	-0.16379946
203	0xbdcec9d8	-0.100970924
204	0xbce852fa	-0.028359879
205	0xbda6ad1b	-0.08138486
206	0x3c13c986	0.009020215
207	0xbc984d02	-0.018591408
208	0x3df609b3	0.12013569
209	0x3cd20784	0.02563835
210	0xbc02aa9f	-0.00797525
211	0xbd8ed877	-0.06974881
212	0xbe072517	-0.13197742
213	0xbda33b89	-0.0797034
214	0x3dd09135	0.10183946
215	0x3dd787f1	0.10523976
216	0x3dd6fc89	0.10497386
217	0xbce8c3b2	-0.028413627
218	0x3cdc073d	0.02685892
219	0xbe275c77	-0.16343866
220	0xbe0a1854	-0.13485843
221	0x3dcaf1bd	0.09909389
222	0xbd4406a0	-0.04785788
223	0x3d696ab5	0.05698653
224	0xbdd07a81	-0.10179616
225	0x3cc7e168	0.024399474
226	0xbe47ec69	-0.19523777
227	0x3d19f97f	0.037591454
228	0xbe003d34	-0.12523347
229	0x3dbad5b6	0.091227934
230	0x3d8945d7	0.06702774
231	0x3debbb01	0.115102775
232	0xbd1b8ce5	-0.037976164
233	0xbd4b3b50	-0.04961711
234	0x3a939368	0.001125914
235	0x3d7bc143	0.061463606
236	0x3e1072a0	0.14106226
237	0xbdb359dc	-0.08757374
238	0x3e1d62f1	0.15369774
239	0xbc5699ce	-0.013098193
240	0xbcef6655	-0.0292236
241	0xbdb6f46b	-0.08933338
242	0x3e21a433	0.15785293
243	0x3da0a32c	0.078436226
244	0xbe00989b	-0.12558214
245	0xbd2159cb	-0.039392274
246	0x3e01790d	0.12643833
247	0x3def7d55	0.11693827
248	0x3e3b9002	0.18316653
249	0x3cb8fc4a	0.022581238
250	0x3d96dd27	0.073664
251	0xbb3c4fe1	-0.0028734135
252	0x3c8eafc3	0.017417794
253	0x3d7eff53	0.062255215
254	0xbe0465df	-0.12929486
255	0x3daf4b41	0.085592754

network.2.bias f4 [32]
0	0xbd380f96	-0.04493674
1	0xbd145a01	-0.036218647
2	0x3e01ba74	0.12668782
3	0xbd0eae24	-0.034834042
4	0x3e0f36ec	0.13985795
5	0x3cb10f9c	0.021613888
6	0x3dddc3b7	0.10828345
7	0x3e220639	0.15822686
8	0xbd79ae20	-0.060957074
9	0x3e2b2d91	0.16716601
10	0x3d080f2b	0.03321759
11	0xbca9ce4a	-0.02072825
12	0x3cb05f44	0.021529801
13	0xbd0eb1b4	-0.03483744
14	0x3c8788ae	0.016544666
15	0x3cd346f2	0.025790665
16	0xbad3335f	-0.0016113332
17	0x3e0ca876	0.13736138
18	0x3e3a93e8	0.18220484
19	0x3d81f347	0.063452296
20	0xbe019206	-0.1265336
21	0x3cf8fc51	0.030393751
22	0x3d62f6c4	0.055411115
23	0x3e235e09	0.1595384
24	0x3da8aed1	0.082364686
25	0x3c8bbc27	0.017057491
26	0x3dc1a763	0.094557546
27	0xbb193d8a	-0.0023382627
28	0xbdbe340a	-0.092872694
29	0xbd3b1bae	-0.045680694
30	0x3d943f18	0.07238597
31	0x3df71ead	0.12066398

network.4.weight f4 [3, 32]
0	0xbdfbe86c	-0.1230019
1	0x3e830cbe	0.2559566
2	0x3d34ae0e	0.044111304
3	0xbdfd3124	-0.123628885
4	0xbd971a3e	-0.07378052
5	0xbd086c26	-0.033306263
6	0x3d2f41ea	0.04278747
7	0x3db9c21d	0.09070227
8	0x3cfdf015	0.03099827
9	0x3e5634fc	0.2091865
10	0x3dc02677	0.093823366
11	0xbe25c079	-0.16186704
12	0x3e46b3a0	0.19404459
13	0xbdce3a48	-0.1006971
14	0xbd7f827f	-0.06238031
15	0xbd17ef73	-0.03709359
16	0x3e106b00	0.14103317
17	0xbe7f08f5	-0.2490576
18	0x3dd94c96	0.10610311
19	0x3cebb6dc	0.028773718
20	0x3dc5404f	0.096314065
21	0xbd137920	-0.036004186
22	0x3df5b7d1	0.11997951
23	0x3e3a9ebb	0.18224613
24	0x3d42586d	0.04744761
25	0x3bd90e88	0.0066240467
26	0x3e6c4f84	0.23077208
27	0xbe5565cd	-0.20839615
28	0xbe5232fa	-0.20527259
29	0xbd9df13c	-0.077120274
30	0xbe0b9548	-0.13631165
31	0x3db96c57	0.09053867
32	0x3e8514e2	0.25992495
33	0xbdd1d213	-0.102451466
34	0xbe6781ce	-0.2260811
35	0xbe34c6ae	-0.17653915
36	0x3e870d71	0.26377442
37	0xbd654bce	-0.055980496
38	0xbe3a055d	-0.18166108
39	0x3e2548ee	0.16141102
40	0x3d7ab757	0.061210003
41	0xbe694980	-0.22781944
42	0x3da8fb7d	0.082510926
43	0x3e21d67a	0.15804473
44	0x3e08c374	0.1335581
45	0x3d9e6d89	0.07735736
46	0xbe19c96f	-0.15018247
47	0x3cdacd67	0.026709272
48	0x3d4b1f7a	0.049590565
49	0x3d59a6ff	0.053137776
50	0xbd795577	-0.06087252
51	0xbe844bec	-0.25839174
52	0xbda60892	-0.081071034
53	0x3e1f70fd	0.15570445
54	0x3d83f546	0.064432666
55	0xbe334ad8	-0.1750902
56	0xbe7b62e8	-0.24549448
57	0x3dc32850	0.095291734
58	0xbe009e3f	-0.12560366
59	0xbe813a81	-0.25239947
60	0x3df90f07	0.12161069
61	0x3e2fc87f	0.17166327
62	0xbe222442	-0.15834144
63	0xbe6136c3	-0.21993546
64	0x3dc2f3d5	0.095191635
65	0x3d8fb320	0.07016587
66	0xbe476589	-0.19472326
67	0x3e2af6c1	0.16695692
68	0xbdbf0c30	-0.093284965
69	0xbb702855	-0.0036645134
70	0xbd501182	-0.050797947
71	0xbe60a151	-0.21936537
72	0xbe462d8a	-0.1935331
73	0x3d8d4a55	0.06898943
74	0xbe542971	-0.20718934
75	0x3e80d92d	0.25165692
76	0xbcfc21e7	-0.030777885
77	0xbd8a9994	-0.06767574
78	0x3e2871d9	0.1644968
79	0xbe713a51	-0.23557402
80	0xbe2bc4e2	-0.16774324
81	0x3d80bb45	0.06285719
82	0xbe7cee6c	-0.24700326
83	0x3e31f6dc	0.17379326
84	0x3d0f62ef	0.03500646
85	0xbe62c7c6	-0.2214652
86	0xbe79edcd	-0.2440712
87	0x3d8d8f96	0.069121525
88	0x3e27a2d2	0.16370705
89	0xbcaeac38	-0.021322355
90	0xbe78b7b3	-0.24288826
91	0xbcb48de7	-0.02204032
92	0x3da8e45e	0.082466826
93	0x3c3005e7	0.010743595
94	0x3e0790f1	0.13238885
95	0x3dd43171	0.10360993

network.4.bias f4 [3]
0	0xbcb47990	-0.022030622
1	0x3db66a9f	0.08907055
2	0x3e531594	0.206137
