snorkel/overfitted_model_2.pth (torch, 30888 bytes, 4 tensors)

network.0.weight f4 [1024, 3]
0	0xbbc8de9c	-0.0061300527
1	0x3f8ea317	1.1143521
2	0xbeda2753	-0.42608127
3	0xbf59449a	-0.848703
4	0xbeb88a37	-0.3604295
5	0x3e91a816	0.28448552
6	0xbf1322f0	-0.57475185
7	0x3f9f2ab4	1.2434907
8	0x3e676e08	0.22600567
9	0x3ecb6d3d	0.3973178
10	0xbf20e215	-0.62844974
11	0xbf20172d	-0.62535363
12	0xbf1f7a23	-0.6229574
13	0xbf4a9107	-0.79127544
14	0xbe9b6bec	-0.30355775
15	0x3eb80383	0.3594018
16	0x3f468886	0.7755207
17	0x3ecba7e0	0.39776516
18	0xbf5df5f2	-0.8670341
19	0xbfa04cca	-1.2523434
20	0x3e6a8698	0.22902906
21	0x3ed161d8	0.4089496
22	0x3d6f983c	0.05849479
23	0x3f175031	0.5910674
24	0xbee09500	-0.43863678
25	0x3f080095	0.5312589
26	0x3fa06e23	1.2533611
27	0xbf542637	-0.8287081
28	0xbf3b20d3	-0.7309696
29	0xbe034918	-0.12820852
30	0xbe608b0b	-0.2192804
31	0x3f7dd0a9	0.99146515
32	0xbf11365d	-0.56723577
33	0xbd0f10bb	-0.034928065
34	0xbf33fd30	-0.7030821
35	0xbf5ac192	-0.85451615
36	0xbfbbd366	-1.4673889
37	0x3f558798	0.83410025
38	0x3f1f19d6	0.621488
39	0x3e615bf7	0.22007738
40	0xbb1f4c9d	-0.002430714
41	0xbe6a15b5	-0.22859843
42	0xbd8c4e31	-0.06850851
43	0xbf532ef0	-0.82493496
44	0xbf4febaa	-0.8121897
45	0xbf5da36a	-0.86577475
46	0x3f4af555	0.79280597
47	0x3f83569a	1.0260804
48	0x3e85f0fd	0.26160422
49	0xbeb3982b	-0.35077032
50	0x3fa81c14	1.3133569
51	0x3f992444	1.1964192
52	0x3f4d2fd2	0.80151093
53	0xbe27e009	-0.16394056
54	0x3fa3f1e1	1.280819
55	0xbf5596a8	-0.8343301
56	0x3ebbba2f	0.36665484
57	0xbeb01297	-0.34389183
58	0xbee1684a	-0.4402488
59	0xbebdeb66	-0.37093657
60	0x3df121ec	0.11774048
61	0x3f7084f7	0.9395289
62	0xbd313c39	-0.043270323
63	0x3dc7bff0	0.09753406
64	0x3e97e8c1	0.29669765
65	0xbe973118	-0.29529643
66	0xbd8be75d	-0.068312384
67	0x3e9cf74c	0.30657423
68	0x3fc44ffe	1.5336912
69	0x3fe662c5	1.7998892
70	0xbfadba90	-1.3572559
71	0xbf8bbd40	-1.091713
72	0x3f47b2e6	0.7800735
73	0x3f767c9e	0.962839
74	0x3f979608	1.1842661
75	0x3fe01e47	1.750924
76	0x3e23fcd0	0.16014409
77	0xbf163c10	-0.586854
78	0x3e9e6503	0.3093644
79	0xbf8cbd2a	-1.0995228
80	0xbfa72c23	-1.3060344
81	0x3e8610e9	0.26184776
82	0x3e986af1	0.2976909
83	0xbf345b14	-0.70451474
84	0x3ddd5092	0.10806383
85	0xbdc7307a	-0.09726043
86	0xbdc2944d	-0.095009424
87	0xbeb8ebae	-0.3611731
88	0xbe1fcf1e	-0.15606353
89	0xbfbce3db	-1.4757036
90	0x3f51383b	0.81726426
91	0x3f501779	0.81285816
92	0x3f233644	0.6375468
93	0x3f43d26d	0.7649296
94	0xbfc482ae	-1.535238
95	0xbf522b32	-0.8209716
96	0x3ea4ad71	0.32163575
97	0x3e1ddcf6	0.15416321
98	0xbebcbd98	-0.368634
99	0xbf83995d	-1.0281178
100	0x3f69ff67	0.9140534
101	0x3f98c802	1.1936038
102	0xbeb5ab80	-0.35482407
103	0xbe1bca63	-0.15213923
104	0xbfcc78f6	-1.5974414
105	0xbcf8f165	-0.030388543
106	0xbf1586e6	-0.58408964
107	0xbf302c55	-0.68817645
108	0xbeb05801	-0.34442142
109	0x3eadef9e	0.33971876
110	0xbf86f4f5	-1.0543505
111	0x3ea1a03e	0.31567568
112	0xbf2092d4	-0.6272404
113	0x3eaac456	0.33352917
114	0x3f8668de	1.0500753
115	0xbefc6a6b	-0.4929994
116	0xbea0e7fa	-0.31426984
117	0x3d514804	0.05109407
118	0x3bf8e999	0.0075962064
119	0x3dc31352	0.095251694
120	0x3f2fae6b	0.68625516
121	0x3d6ceb74	0.057841733
122	0xbf2345e5	-0.63778526
123	0x3eb5e76e	0.3552813
124	0xbf9d22a3	-1.2276195
125	0xbee1c20b	-0.44093356
126	0x3b6c02d9	0.003601244
127	0xbf9ef01f	-1.2417029
128	0xbe370794	-0.17873985
129	0xbee9636d	-0.45583668
130	0xbe981a69	-0.2970765
131	0x3f0225a0	0.5083866
132	0xbf2e3a02	-0.6805726
133	0x3f194bc0	0.5988121
134	0x3f5caf9c	0.8620546
135	0xbb88ee38	-0.0041787885
136	0xbd350054	-0.044189766
137	0x3c1c8ea0	0.009555489
138	0x3e10ff48	0.14159882
139	0x3ee6fe12	0.45115715
140	0x3eda492f	0.4263396
141	0x3e70a6c9	0.23501123
142	0x3f535334	0.8254883
143	0xbe035380	-0.12824821
144	0xbf00e5f5	-0.50350887
145	0xbdb90e09	-0.0903588
146	0x3eeb4fa5	0.459592
147	0xbb822d66	-0.003972697
148	0xbef7e599	-0.48417357
149	0xbf3dc125	-0.7412284
150	0xbf63112e	-0.8869809
151	0xbfa89e21	-1.3173257
152	0xbe9ac295	-0.3022658
153	0x3f6843a5	0.9072822
154	0x3ddc37d0	0.10752833
155	0xbf539bb8	-0.8265948
156	0x3ddb968f	0.10722076
157	0xbe1ef605	-0.15523537
158	0xbeae1b4d	-0.34005204
159	0xbea4c3f6	-0.32180756
160	0xbe134ebd	-0.14385505
161	0xbfd0819b	-1.6289552
162	0xbf5a2a29	-0.8522058
163	0xbf431ccb	-0.7621581
164	0x3ce94ed9	0.02847998
165	0x3b845a1b	0.0040390617
166	0xbf792e13	-0.9733593
167	0x3eb7b2a9	0.35878494
168	0xbf092063	-0.53565043
169	0x3b9d6d9b	0.0048043258
170	0x3eec1d7f	0.46116254
171	0xbf75825c	-0.9590204
172	0x3fd8f581	1.6949922
173	0x3f0cc3b0	0.54986095
174	0xbf9b2ced	-1.2123085
175	0x3f20dc09	0.62835747
176	0x3e4a15e2	0.1973491
177	0xbeab6fcc	-0.33483732
178	0x3f810761	1.0080377
179	0xbf8daed7	-1.1068982
180	0x3e31e7d3	0.1737359
181	0xbeb6bed8	-0.35692477
182	0x3f802567	1.0011414
183	0x3e903d99	0.28171995
184	0x3f30fb0f	0.69133085
185	0x3e17e523	0.14833502
186	0xbf238151	-0.63869196
187	0xbf336d1a	-0.7008835
188	0xbefc3daf	-0.4926581
189	0x3e4b8c58	0.19877756
190	0x3ec1cf59	0.37853506
191	0x3e38fbf2	0.1806486
192	0xbe39349f	-0.1808648
193	0x3eb42be2	0.3518973
194	0xbf8c5976	-1.0964801
195	0xbf54690c	-0.8297279
196	0xbf994b05	-1.1976019
197	0x3e58f6bb	0.2118787
198	0xbf4b2ca5	-0.79365
199	0x3f23e59c	0.6402223
200	0x3eb96461	0.36209396
201	0x3fa60fd9	1.2973586
202	0xbf99e65c	-1.2023425
203	0xbf172e6b	-0.59055203
204	0xbe8df514	-0.27726042
205	0x3efdd0a9	0.49573258
206	0xbe96ce7f	-0.2945442
207	0x3f8eb38e	1.1148546
208	0x3f3c4bd1	0.73553187
209	0xbdc49a1a	-0.09599705
210	0xbc981ea3	-0.018569296
211	0xbc096f10	-0.008388296
212	0xbc1b5e0f	-0.009482875
213	0x3dba4999	0.09096069
214	0xbbeb5081	-0.0071812277
215	0x3d37b7e3	0.044853102
216	0xbf8bd95e	-1.092571
217	0xbe87d75c	-0.26531494
218	0x3f9d43f6	1.2286365
219	0xbf49dbcb	-0.78851
220	0x3f749e7a	0.95554316
221	0x3fd2ba4a	1.6463101
222	0x3f278f44	0.6545298
223	0xbe183fde	-0.14868113
224	0xbf45d564	-0.77278733
225	0x3e40636c	0.18787926
226	0xbf13038c	-0.5742729
227	0xbdc60541	-0.09668971
228	0xbe092f5e	-0.13396975
229	0xbcd6eb49	-0.02623524
230	0xbd58a051	-0.052887265
231	0x3f0805aa	0.5313364
232	0x3d9297c1	0.07157851
233	0x3f3a02e9	0.7266069
234	0x3f9d2714	1.2277551
235	0xbf7e4a38	-0.99332
236	0x3e936673	0.287891
237	0xbf4a1bc6	-0.7894863
238	0xbf364a89	-0.7120748
239	0x3cd4ab50	0.025960594
240	0x3ed9d835	0.42547765
241	0x3f8e53f5	1.1119372
242	0xbe3281db	-0.17432348
243	0xbea03f02	-0.3129807
244	0xbe1a83ff	-0.15089415
245	0xbfd3432c	-1.6504874
246	0x3f9107b0	1.1330471
247	0xbf6bb681	-0.92075354
248	0x3e8b3083	0.2718545
249	0x3e12ef2e	0.14349052
250	0xbf843544	-1.0328755
251	0x3d83c9f9	0.064350076
252	0x3f2efbd1	0.6835299
253	0xbf094656	-0.5362295
254	0xbf3c8e64	-0.7365477
255	0xbf13d236	-0.5774263

network.0.bias f4 [1024]
0	0x3f47caea	0.78044
1	0x3edf8393	0.4365507
2	0xbfbc615f	-1.4717215
3	0xbf541a55	-0.8285268
4	0x3eafb9a9	0.34321335
5	0xbfb13861	-1.384533
6	0xbe3620d4	-0.1778596
7	0xbf907cf5	-1.1288134
8	0x3d8eaaa1	0.06966139
9	0x3ecca370	0.39968443
10	0x3eb344a7	0.35013315
11	0x3f3f0512	0.7461711
12	0xbea0f7dd	-0.31439105
13	0x3e2914c3	0.16511826
14	0xbe0c5abf	-0.13706492
15	0xbf5aac60	-0.85419273
16	0xbfdd061e	-1.7267492
17	0x3f37b2cb	0.7175719
18	0xbd814bf9	-0.06313319
19	0x3ee8f67f	0.45500562
20	0x3eba05e6	0.36332625
21	0xbe47587d	-0.1946735
22	0xbfdc9372	-1.7232497
23	0x3e072da4	0.13201004
24	0xbf95b9df	-1.1697348
25	0x3e5aaa64	0.21354061
26	0xbf9df9ef	-1.2341899
27	0x3ef0c922	0.47028452
28	0xbf055a1d	-0.52090627
29	0xbf68be07	-0.9091496
30	0x3d45e821	0.04831708
31	0xbee4aebf	-0.4466457
32	0x3ea12b2f	0.3147826
33	0xbf7f0640	-0.9961891
34	0xbf709ec7	-0.93992275
35	0x3f1b8b0d	0.6075905
36	0x3ed8f894	0.4237715
37	0x3ee6bdcc	0.4506668
38	0xbf14a734	-0.5806763
39	0xbec602ca	-0.38674003
40	0xbf401990	-0.75039005
41	0x3eee2170	0.46509886
42	0x3f298f7e	0.66234577
43	0xbfd5d983	-1.6707004
44	0xbf37813b	-0.71681565
45	0xbe21f310	-0.15815377
46	0x3f0e3b8c	0.5555961
47	0xbf5f932e	-0.87333953
48	0x3f11faae	0.5702313
49	0xbf91cdd9	-1.1390945
50	0xbef17b88	-0.4716456
51	0xbf831d5b	-1.0243334
52	0x3e9e2941	0.3089085
53	0xbf669074	-0.9006417
54	0x3e95c370	0.2925067
55	0xbf30777d	-0.68932325
56	0x3f1e2e5e	0.617895
57	0xbbdc6f28	-0.006727118
58	0xbf86b438	-1.0523748
59	0xbca994be	-0.020700809
60	0xbf5a3634	-0.8523896
61	0xbf9432d2	-1.1578009
62	0xbddc14b4	-0.10746136
63	0x3edc5572	0.4303394
64	0x3f66cff3	0.90161055
65	0xbe3464bc	-0.17616552
66	0xbed3a264	-0.41334832
67	0x3e0227a4	0.12710434
68	0xbed6ac87	-0.41928503
69	0x3f335f7f	0.7006759
70	0x3ce3ddab	0.02781566
71	0xbe8cb3f5	-0.27481046
72	0xbf993f29	-1.19724
73	0xc00fb8db	-2.2456577
74	0xbf9a0da9	-1.2035419
75	0x3f29d30f	0.66337675
76	0xbf16da93	-0.5892727
77	0xbfb4e159	-1.4131271
78	0x3c898d36	0.016790967
79	0x3e8b67d5	0.27227655
80	0xbf57885e	-0.84192455
81	0xbf6a7a31	-0.915927
82	0x3c50abeb	0.012736301
83	0xbf985732	-1.190161
84	0x3f07d6d8	0.530622
85	0x3dddf49e	0.10837673
86	0xbf2034c8	-0.6258054
87	0xbfa367b4	-1.2766023
88	0x3ea1f1d4	0.31629813
89	0xbf3adab7	-0.7298998
90	0xbf84a931	-1.0364133
91	0x3e1731a3	0.14765029
92	0xbd86620d	-0.065616705
93	0x3d9cd61d	0.07658026
94	0xbd013717	-0.03154668
95	0xbf736b1e	-0.9508532
96	0xbf986403	-1.1905521
97	0x3db76498	0.089547336
98	0xbfd0460e	-1.6271379
99	0xbf1f3134	-0.62184453
100	0xbc954b24	-0.018224306
101	0xbf1d0f74	-0.61351705
102	0x3e9c3952	0.30512482
103	0xbf88e771	-1.069563
104	0x3e6f6749	0.23379244
105	0xbea2e3a9	-0.31814316
106	0x3e587a4a	0.211404
107	0xbfab971b	-1.3405489
108	0xbf2ac2a9	-0.6670328
109	0x3f19a744	0.6002085
110	0xbfa0f965	-1.2576109
111	0x3d7c135c	0.0615419
112	0xbf7c91d0	-0.9865999
113	0x3ec0b128	0.3763516
114	0xbf1ffdbb	-0.62496537
115	0x3d5eba65	0.05437698
116	0xbf5cac22	-0.86200154
117	0xbf6ef1fd	-0.93337995
118	0x3f224fd7	0.63403076
119	0xbfaa5947	-1.3308495
120	0xbe115c87	-0.14195453
121	0x3ed600eb	0.41797575
122	0x3f0ae12b	0.5424983
123	0x3e9ecfe2	0.31017977
124	0xbee50b96	-0.44735402
125	0x3eee9dac	0.4660467
126	0xbf93b7e5	-1.1540495
127	0xbf92c0af	-1.1465052
128	0xbf2d1d7c	-0.67623115
129	0xbf165599	-0.5872436
130	0xbf9dfb40	-1.23423
131	0xbfcde946	-1.6086814
132	0xbf60f2bb	-0.8787038
133	0xbed839f3	-0.42231712
134	0x3ed6395f	0.41840646
135	0xbf943579	-1.1578819
136	0x3e9e3209	0.3089755
137	0x3ee2c426	0.44290274
138	0x3efd023f	0.49415776
139	0x3f1f3ae7	0.6219925
140	0xbf9cdecd	-1.2255493
141	0xbdc0273c	-0.09382483
142	0xbf349026	-0.70532453
143	0xbea56f27	-0.32311365
144	0x3d3eed6f	0.046613153
145	0xbe8440bf	-0.25830647
146	0x3f096fec	0.53686404
147	0x3ddf8377	0.10913747
148	0xbf530756	-0.8243307
149	0x3e3d5cfa	0.18492499
150	0x3eab9358	0.33510852
151	0xb9d6a051	-0.00040936706
152	0xbf7774c5	-0.9666255
153	0xbf32b673	-0.69809645
154	0x3eee71cd	0.46571198
155	0xbdaff156	-0.08590953
156	0x3f16bfec	0.588866
157	0x3e9df9ff	0.30854794
158	0x3e17048c	0.14747828
159	0xbef58ee1	-0.4796057
160	0x3f2922c5	0.6606868
161	0xbf06bc3d	-0.5263098
162	0x3f039440	0.51398087
163	0xbfdfd5a2	-1.748707
164	0xbe8aec61	-0.27133468
165	0x3edb4c80	0.42831802
166	0x3ea72c63	0.32651052
167	0xbf7a9bca	-0.97893965
168	0xbda21f97	-0.079161815
169	0xbf00af8d	-0.5026787
170	0x3ec20a08	0.37898278
171	0x3e708d2a	0.2349135
172	0x3e27671c	0.16347927
173	0xbf993707	-1.1969918
174	0xbf96c607	-1.1779183
175	0x3ea5e373	0.32400092
176	0xbd6e37a5	-0.058158536
177	0x3f1b78e4	0.6073134
178	0x3eeaedbf	0.4588451
179	0xbed54b90	-0.41659212
180	0xbf5fecda	-0.8747078
181	0xbfbea8d3	-1.4895271
182	0x3e855ad1	0.2604585
183	0x3eaa90a6	0.33313483
184	0xbe5c19c6	-0.21494207
185	0xbf1614c4	-0.58625436
186	0xbf2e7121	-0.6814137
187	0xbf0d4f3d	-0.55199033
188	0x3e59c269	0.21265568
189	0xbebdd400	-0.37075806
190	0xbf8d32c7	-1.1031121
191	0xbf863104	-1.0483708
192	0x3f52c133	0.8232605
193	0x3ecdfe0f	0.40232894
194	0xbf7d1cac	-0.98871875
195	0xbeff0de8	-0.49815297
196	0xbf676445	-0.90387374
197	0xbe9d89fa	-0.3076933
198	0xbf271bac	-0.652766
199	0xbf86eb64	-1.0540586
200	0xbeb59417	-0.35464546
201	0xbfc390f3	-1.527861
202	0xbf55d526	-0.83528364
203	0xbf8d238d	-1.1026474
204	0xbfabd236	-1.3423526
205	0x3e84823c	0.2588061
206	0xbfbee05f	-1.4912223
207	0xbefc4a33	-0.4927536
208	0xbf14200a	-0.5786139
209	0x3edf43e7	0.43606493
210	0xbf9d5102	-1.2290347
211	0x3eebb37d	0.46035376
212	0xbfa71c57	-1.3055524
213	0xbf82e7bb	-1.0226969
214	0xbe1bfd18	-0.15233266
215	0xbf39449f	-0.7237033
216	0x3ee19e32	0.44066006
217	0xbf40bb3d	-0.752857
218	0x3e83eade	0.25765127
219	0x3e95b250	0.29237604
220	0xbe67b207	-0.22626506
221	0x3db62ae1	0.08894897
222	0x3f7e8b60	0.9943142
223	0x3ecfd869	0.40594795
224	0xbfbdddb3	-1.4833282
225	0xbe0bd3b3	-0.13654976
226	0xbf9d6094	-1.2295098
227	0x3ea0a3a9	0.31374863
228	0x3ceb7bae	0.028745499
229	0xbe32cacd	-0.17460175
230	0xbef38eeb	-0.47569975
231	0xbf9842b5	-1.1895357
232	0xbe46e75c	-0.19424194
233	0x3f368aef	0.71305746
234	0xbf850dbe	-1.0394819
235	0xbeb70e90	-0.35753298
236	0x3e9e21d5	0.30885187
237	0x3f2f7378	0.68535566
238	0xbf324415	-0.69635135
239	0x3ed88d66	0.42295378
240	0x3e401f67	0.18761979
241	0x3eb14982	0.34626395
242	0xbc3aa9e2	-0.011393042
243	0xbfd8af8f	-1.6928576
244	0xbf440181	-0.76564795
245	0x3d3b2351	0.045687977
246	0x3ee78e48	0.4522574
247	0xbfdd70f2	-1.7300093
248	0x3ebe77b6	0.37200707
249	0xbf769122	-0.96315205
250	0x3e4884a5	0.1958185
251	0x3f297b66	0.66203916
252	0x3e91b241	0.2845631
253	0xbf05c2b9	-0.5225025
254	0x3ebda045	0.37036338
255	0xbf1f10e4	-0.6213515

network.2.weight f4 [3, 1024]
0	0x3e31479c	0.17312473
1	0xbe55d7e1	-0.20883133
2	0xc07d27db	-3.9555576
3	0x3f8e9fd8	1.114253
4	0x3e3f3892	0.18673924
5	0x3fa17d7f	1.2616423
6	0x3d263cde	0.04058539
7	0xbdfa7994	-0.122302204
8	0x3f62539e	0.8840884
9	0x3e88214d	0.26587906
10	0x3d64fb3e	0.055903666
11	0x3e6880b5	0.22705348
12	0xbe222be1	-0.15837051
13	0xbccc41fb	-0.024933806
14	0xbeb44b05	-0.35213485
15	0xbf96e248	-1.1787806
16	0x400c1ec9	2.189379
17	0xbdd049c5	-0.101703204
18	0x3ed82a92	0.4221998
19	0xbd15f3ff	-0.036609646
20	0x3e1a75f3	0.15084057
21	0xbd5e5a6b	-0.054285448
22	0xc09cd568	-4.9010506
23	0x3f178aab	0.59195966
24	0x3e8c98f6	0.2746045
25	0x3f3a673d	0.7281378
26	0xbfaf1183	-1.3677219
27	0x3d06ed47	0.03294113
28	0xbb4eb420	-0.0031540468
29	0x3f36030e	0.7109841
30	0xbf046254	-0.51712537
31	0xbf5a5e77	-0.8530039
32	0xbd2dd851	-0.042442624
33	0xbf97c972	-1.1858351
34	0x3f3fe95f	0.7496547
35	0x3e5e01d6	0.21680388
36	0xbea39188	-0.3194697
37	0xbe043131	-0.1290939
38	0x3dba62e0	0.0910089
39	0xbc51047d	-0.012757418
40	0xbfd78ed1	-1.6840459
41	0x3ee38a3f	0.4444141
42	0x3ec77ddb	0.38963208
43	0x3f750e19	0.95724636
44	0xbeded289	-0.4352
45	0xbd80ba34	-0.062855154
46	0xbd3d859b	-0.046269994
47	0x3eb89b3c	0.36055934
48	0xbdd2164c	-0.10258159
49	0xbf9db7f5	-1.2321764
50	0xbf3c984a	-0.73669875
51	0xbf9a0d38	-1.2035284
52	0x3bba9da8	0.0056950636
53	0x3f81c1cd	1.0137268
54	0x3e80407e	0.25049204
55	0x3f6c86e5	0.9239333
56	0xbdda3b48	-0.10655838
57	0xbf21526c	-0.6301639
58	0xbed787c5	-0.4209577
59	0xbebb9baf	-0.36642215
60	0xbf91cf6f	-1.1391429
61	0x3fc16162	1.5107844
62	0xbe8ac360	-0.27102184
63	0xbd6b15a8	-0.0573937
64	0xbed16766	-0.408992
65	0x3d8b19dd	0.067920424
66	0xbea11324	-0.31459916
67	0xbe8558a9	-0.26044205
68	0xbe1df5c2	-0.1542578
69	0xbccac670	-0.024752825
70	0xbc6223bd	-0.013802466
71	0xbce91b79	-0.028455483
72	0x3f6c4170	0.9228735
73	0x3f8d8a01	1.105774
74	0xbf391f4c	-0.7231338
75	0xbe2427a1	-0.16030742
76	0xbd106b58	-0.03525862
77	0xbe8e0dd0	-0.27744913
78	0x3eb80e58	0.35948443
79	0x3eae7929	0.34076813
80	0x3f969edb	1.1767229
81	0x3f3977af	0.7244825
82	0x3eba0c85	0.36337677
83	0x4011a7a0	2.275856
84	0xbe9293e1	-0.28628448
85	0xbf30d580	-0.69075775
86	0xbf2b1ba2	-0.6683904
87	0x3e95cc56	0.29257458
88	0x3da4caf8	0.08046526
89	0xbfac776a	-1.3473942
90	0x3f2fc2d4	0.6865666
91	0xbe804938	-0.2505586
92	0x3ece3b60	0.40279675
93	0xbdacd8f6	-0.084398195
94	0x3f0dc614	0.5538037
95	0x3f82aba0	1.0208626
96	0xbfce5906	-1.6120918
97	0x3c699924	0.014257703
98	0xbfba70e9	-1.4565707
99	0x3ec47dba	0.38377172
100	0xbed0e086	-0.40796298
101	0x3f0add38	0.54243803
102	0xbdf2d8f7	-0.11857789
103	0xbfef7aff	-1.870941
104	0x3d8cf2d7	0.068822555
105	0xbd96bb8d	-0.07359991
106	0xbd855c5b	-0.06511756
107	0x40094f9c	2.145484
108	0xbf1dc842	-0.61633694
109	0x3e3a6322	0.18201879
110	0x3f86114b	1.0474027
111	0x3e1c771a	0.15279809
112	0x3ec26f69	0.37975624
113	0x3c295c56	0.010336956
114	0xbf9c6063	-1.2216915
115	0xbeb8dff9	-0.36108378
116	0x3f1733cc	0.5906341
117	0x3f6b38dc	0.91883636
118	0x3e876140	0.26441383
119	0x3fca36b4	1.5797944
120	0xbe848ad6	-0.25887173
121	0x3d781fd4	0.06057723
122	0x3d3dc96c	0.04633467
123	0x39f9dd12	0.0004765769
124	0x3e9f780a	0.3114627
125	0x3f3277a4	0.6971381
126	0xbe53b127	-0.20673047
127	0x3ec8a240	0.39186287
128	0xbf8360de	-1.0263937
129	0x3e85c52d	0.26126996
130	0x3ef8d87b	0.48602661
131	0x3e90cd1c	0.28281486
132	0xbfc44e1c	-1.5336337
133	0x3ee89d44	0.45432484
134	0x3f55a8e2	0.8346082
135	0xbfe82caf	-1.8138636
136	0x3d8180d0	0.06323397
137	0xbe1719f5	-0.14755996
138	0xbd9d70a3	-0.076874994
139	0xbcf7f84e	-0.030269768
140	0x4020f801	2.515137
141	0xbf3c59bc	-0.73574424
142	0xbfb2d6ef	-1.3971843
143	0x3d463d9d	0.048398603
144	0x3eecae5e	0.46226782
145	0x3e9fdb90	0.312222
146	0x3ee9c044	0.456545
147	0x3f08c45b	0.53424615
148	0xbec8594a	-0.39130622
149	0xbdae233d	-0.08502815
150	0x3d12ae10	0.03581053
151	0xbeabd899	-0.33563688
152	0x3f322ce4	0.6959975
153	0xbf6f3473	-0.93439406
154	0xbe5d3b20	-0.21604586
155	0xbef010c5	-0.46887794
156	0xbdaae1b2	-0.08343829
157	0xbe5c2934	-0.21500093
158	0xbe4d4d3c	-0.20048994
159	0x3e20fd12	0.15721539
160	0x3e8157d1	0.2526231
161	0xbef1cd9b	-0.47227177
162	0x3d5adaf0	0.05343145
163	0x40836e8d	4.107245
164	0xbf1218ec	-0.5706928
165	0xbe151688	-0.14559376
166	0xbe8c7128	-0.2743008
167	0xbdb1ac2f	-0.086754195
168	0x3e9f19a5	0.31074253
169	0x3cdd2996	0.026997369
170	0xbdfcade2	-0.12337853
171	0x3b16a550	0.0022986718
172	0xbf0ad4a8	-0.5423074
173	0xbfdd439f	-1.7286261
174	0x3f401576	0.75032747
175	0x3d85831b	0.06519147
176	0xbdec9595	-0.11551968
177	0xbe8fd05e	-0.2808866
178	0xbd9f6ac4	-0.07784036
179	0xbe640683	-0.22268109
180	0x3f3d7480	0.7400589
181	0x3f8a9833	1.0827698
182	0xbec1ff6e	-0.3789019
183	0x3d47a1db	0.04873834
184	0x3e2ebb94	0.17063743
185	0x3f503742	0.81334317
186	0xbfac69bd	-1.3469769
187	0x3eb15521	0.3463526
188	0x3db29299	0.087193675
189	0x3f9434da	1.1578629
190	0xbf17de90	-0.5932398
191	0x3f2f9350	0.68584156
192	0x3d825f9a	0.06365891
193	0xbd894de5	-0.0670431
194	0xbecd5b0d	-0.4010853
195	0xbca4807b	-0.020080796
196	0x3f0f02b9	0.5586353
197	0xbd97672b	-0.073927246
198	0xbfaa6bbd	-1.3314129
199	0xbd83e703	-0.06440546
200	0x3e111499	0.14168014
201	0x3f00645b	0.5015313
202	0xbfeaa343	-1.8331074
203	0xbfff2b8f	-1.9935168
204	0x3d1e3d81	0.038632873
205	0xbe59cd2a	-0.2126967
206	0xbee66d2d	-0.4500517
207	0xbf9e3401	-1.235962
208	0x3ea193bd	0.31558028
209	0x3c9547c2	0.018222693
210	0x3e682849	0.22671618
211	0x3d646669	0.05576173
212	0x3de2e620	0.11079049
213	0x3f47d014	0.7805188
214	0xbe5c378f	-0.21505569
215	0x3e7d9d8c	0.2476713
216	0xbe961da8	-0.293195
217	0xbee11873	-0.43963966
218	0x3d63c134	0.055604175
219	0x3c051879	0.0081235105
220	0xbeae6616	-0.3406226
221	0x3f5391ff	0.8264465
222	0xbe3dfac1	-0.18552686
223	0x3e7c5a15	0.24643739
224	0xc0476168	-3.1153202
225	0x3d592889	0.053017173
226	0xbe638580	-0.22218895
227	0xbce9e8e4	-0.028553434
228	0xbea1bb77	-0.31588337
229	0x3f04fdc1	0.519497
230	0x3e7fe9c0	0.24991512
231	0xbf14a658	-0.5806632
232	0x3db95be1	0.09050728
233	0x3d76d6ca	0.060263433
234	0x3f04abc2	0.5182458
235	0x3e961e06	0.2931978
236	0xbd617c31	-0.05505008
237	0xbe194b75	-0.14970191
238	0x3f8f56b1	1.1198331
239	0xbd9a9824	-0.0754855
240	0x3e54d0cc	0.20782775
241	0x3af72fdc	0.0018858868
242	0x3e9b7775	0.30364576
243	0x3f77f1c8	0.96853304
244	0x3f1b56bf	0.6067924
245	0x3f00bd82	0.50289166
246	0x3ec65949	0.38739994
247	0x401a4795	2.410619
248	0xbd14eb23	-0.036357056
249	0x3f8cba2f	1.0994319
250	0x3d8b40a8	0.067994416
251	0xbddf5ef9	-0.109067865
252	0x3d7bbd9a	0.061460115
253	0xbf8b0ab8	-1.0862646
254	0xbdf1f260	-0.118138075
255	0xbf862e35	-1.0482851

network.2.bias f4 [3]
0	0xbdc813d3	-0.09769406
1	0x3da0f8cd	0.07859955
2	0xbd17b28d	-0.037035514
