snorkel/overfitted_model_0.pth (torch, 3112 bytes, 4 tensors)

network.0.weight f4 [32, 3]
0.6132593 0.43446198 -1.371434 -1.4226929 -1.418647 0.0571278 1.4230591 2.3178568
-0.45570195 0.035959877 -1.9210703 1.5236946 -0.50577676 0.22603746 -0.650632 0.20790097
-0.020512564 0.6500122 -1.4564339 -2.4161267 1.0157828 1.0970966 1.3722692 0.97705024
-0.93584114 1.3069181 2.4767904 -2.15382 -1.877097 -1.2340707 -0.85032296 -0.16494831
-1.695455 -1.5610143 0.03550521 -2.0371401 -1.2236837 1.5399206 0.45523465 2.0105972
-0.16128363 -0.23290409 1.3258884 0.17200418 -1.2506734 -0.98955554 -0.010555328 -1.2203404
-1.0893176 -0.81738085 2.0182705 1.2278336 1.1448697 0.37770134 0.86811066 0.26266915
1.7887298 -0.9834988 -0.37763074 -0.3517558 -0.50635135 -0.19808227 -1.4778534 0.1406434
2.602512 -0.59638757 -0.4194637 0.675787 0.72529626 0.7354941 -1.0373741 -0.8359742
2.0043669 0.13977163 1.7426046 2.4470217 0.6029895 -0.5756919 1.0446041 -1.4472964
-1.1721298 -0.3487366 -0.16871971 -1.0346428 0.10806383 -0.09726043 -0.095009424 0.34080103
1.4808543 -1.2849678 0.5880061 -0.6047478 2.1009254 -1.8178393 -2.2077355 -0.3641291
00000000: 90fe 1c3f cd71 de3e 268b afbf cd1a b6bf
00000010: 3a96 b5bf d7fe 693d cd26 b63f c457 1440
00000020: c451 e9be aa4a 133d a2e5 f5bf 6d08 c33f
00000030: 967a 01bf 5d76 673e d28f 26bf fee3 543e
00000040: f709 a8bc 3367 263f 6d6c babf d2a1 1ac0
00000050: 2c05 823f a96d 8c3f 84a6 af3f f71f 7a3f
00000060: 4993 6fbf 1849 a73f bc83 1e40 30d8 09c0
00000070: b744 f0bf 07f6 9dbf c4ae 59bf 36e8 28be
00000080: ab04 d9bf 51cf c7bf e96d 113d 8160 02c0
00000090: aba1 9cbf 1e1c c53f 8414 e93e a0ad 0040
000000a0: 8927 25be 697e 6ebe b6b6 a93f dd21 303e
000000b0: 1116 a0bf 8353 7dbf 41f0 2cbc 1d34 9cbf
000000c0: c26e 8bbf df3f 51bf 582b 0140 a729 9d3f
000000d0: 178b 923f 1262 c13e 803c 5e3f 927c 863e
000000e0: 19f5 e43f 94c6 7bbf d158 c1be 5619 b4be
000000f0: 3ea0 01bf 14d6 4abe 4d2a bdbf d304 103e
00000100: 8e8f 2640 dbac 18bf f2c3 d6be 6000 2d3f
00000110: 04ad 393f 5749 3c3f adc8 84bf 6802 56bf
00000120: 8c47 0040 4b20 0f3e ab0d df3f 019c 1c40
00000130: 855d 1a3f 8b60 13bf 96b5 853f 0241 b9bf
00000140: 5908 96bf 9b8d b2be dcc4 2cbe 2d6f 84bf
00000150: 9250 dd3d 7a30 c7bd 4d94 c2bd 797d ae3e
00000160: a28c bd3f d379 a4bf 9187 163f c0d0 1abf
00000170: 9075 0640 f5ae e8bf 8a4b 0dc0 216f babe

network.0.bias f4 [32]
-0.32808957 0.6516857 0.11071855 -1.3264925 0.9338978 0.81731707 -0.97931284 0.7233581
-0.53935605 -0.370356 -1.2567034 -1.8031547 -1.838909 1.0000253 -1.4913087 2.389696
0.15180442 1.7835261 1.5285324 -0.9353226 -1.0659114 -0.6879301 -0.03133688 -0.2512128
0.98792374 0.437234 -0.33916983 -0.69705623 -0.5538226 -0.16364586 -0.9045814 -0.9655483
00000000: 5bfb a7be e0d4 263f 68c0 e23d 82ca a9bf
00000010: ed13 6f3f b13b 513f 3fb4 7abf ff2d 393f
00000020: 3d13 0abf 4d9f bdbe a8db a0bf c6cd e6bf
00000030: 5f61 ebbf d400 803f 34e3 bebf c7f0 1840
00000040: 9e72 1b3e 954a e43f f3a6 c33f 4d71 6fbf
00000050: c96f 88bf 301c 30bf 1a5b 00bd f79e 80be
00000060: 92e8 7c3f 23dd df3e aba7 adbe 4772 32bf
00000070: 51c7 0dbf c892 27be a692 67bf 2c2e 77bf

network.2.weight f4 [3, 32]
0.097294144 1.4092791 -1.3035046 1.3983296 -0.4584343 0.26135594 1.4916501 1.0260818
2.2880504 -1.4922377 1.3841473 1.8452915 -3.9694664 0.3981256 -2.2478492 -0.3490313
-1.8605632 -0.59765136 0.29133305 0.2892796 0.54554015 1.2311763 -1.3082197 -0.63723946
-0.08873956 1.6196238 -1.3291533 -0.057166908 0.11027013 -1.1908704 -1.4463269 -1.2429695
0.44744277 -1.9080036 -2.0868397 0.8056499 0.4907176 -0.311695 -4.3201895 0.6710661
-2.6076148 1.7049528 -0.12023836 -0.8634341 1.4634919 1.0094308 1.5406959 -0.35923058
2.1619027 -0.21834017 0.84501 -1.0356476 0.51405346 2.1263704 0.13003068 0.1816203
-1.0124431 -1.2925674 0.61958224 0.30169886 -0.14567839 0.41371635 -0.4118483 2.8730242
-1.8086252 -0.16050352 3.11833 -2.567795 0.122271396 0.31370074 1.2014067 -3.013671
0.97036785 1.1730903 -2.736489 -1.6484303 -0.08463805 -1.9594706 0.6080099 1.2425414
-0.27006638 2.311139 -1.7625105 -0.5412862 -2.1759996 -3.208604 1.0421996 0.6096287
1.5318931 -0.74452436 0.802465 -0.5866835 -0.012693661 1.6052439 3.7060819 -1.2046791
00000000: 2742 c73d 4263 b43f 3dd9 a6bf 77fc b23f
00000010: e7b7 eabe 72d0 853e 64ee be3f a656 833f
00000020: 6b6f 1240 a501 bfbf bd2b b13f 8332 ec3f
00000030: bd0b 7ec0 1ed7 cb3e c3dc 0fc0 3bb4 b2be
00000040: ef26 eebf aeff 18bf 9b29 953e 751c 943e
00000050: 85a8 0b3f 2f97 9d3f be73 a7bf 2022 23bf
00000060: 16bd b5bd d54f cf3f b221 aabf d927 6abd
00000070: 4ed5 e13d 716e 98bf 3d21 b9bf a019 9fbf
00000080: 3817 e53e 7639 f4bf c88e 05c0 123f 4e3f
00000090: 563f fb3e 7d96 9fbe fe3e 8ac0 fdca 2b3f
000000a0: 29e3 26c0 e53b da3f 873f f6bd 040a 5dbf
000000b0: b453 bb3f 0735 813f 8635 c53f 12ed b7be
000000c0: 9d5c 0a40 9194 5fbe 9352 583f 1a90 84bf
000000d0: 0299 033f 7416 0840 c326 053e acfa 393e
000000e0: bc97 81bf d972 a5bf f19c 1e3f 4678 9a3e
000000f0: b72c 15be a1d2 d33e c8dd d2be a1df 3740
00000100: 0881 e7bf 095b 24be b892 4740 c156 24c0
00000110: 6d69 fa3d 629d a03e b2c7 993f fcdf 40c0
00000120: 076a 783f d327 963f a322 2fc0 c4ff d2bf
00000130: b756 adbd efcf fabf 89a6 1b3f 990b 9f3f
00000140: 2446 8abe b4e9 1340 f299 e1bf bb91 0abf
00000150: 9443 0bc0 c559 4dc0 cc66 853f a010 1c3f
00000160: 1315 c43f 2699 3ebf 596e 4d3f e430 16bf
00000170: 13f9 4fbc a278 cd3f 7230 6d40 ed32 9abf

network.2.bias f4 [3]
0.5982071 0.03843551 -1.4069625
00000000: 1a24 193f 8e6e 1d3d 5917 b4bf
