snorkel/overfitted_model_1.pth (torch, 12534 bytes, 6 tensors)

network.0.weight f4 [64, 3]
0	0x3f255646	0.6458477
1	0x3f162fdd	0.58666784
2	0xbf45196c	-0.76991916
3	0xbec1cdf4	-0.37852442
4	0xbf80fdc6	-1.0077446
5	0x3eead9d5	0.45869318
6	0xbf8280ae	-1.019552
7	0x3f73aa7c	0.95182014
8	0xbc9e5984	-0.019329794
9	0x3e624541	0.22096731
10	0xbf4f3ff7	-0.8095698
11	0xbe240985	-0.16019256
12	0xbfb09d69	-1.3798038
13	0xbe30c4ae	-0.17262527
14	0xbe6b0425	-0.229508
15	0xbd57bfb6	-0.052673064
16	0x3f55081f	0.83215517
17	0x3eccce17	0.40000984
18	0xbf8cc3a9	-1.0997211
19	0xbfda6147	-1.7060937
20	0x3f4477ba	0.7674519
21	0x3fb84c85	1.4398352
22	0xbc9b9034	-0.01898966
23	0x400edaca	2.2321038
24	0xbf90bcd1	-1.1307622
25	0x3e70b6fb	0.23507302
26	0x3f5377df	0.82604784
27	0xbf09ed88	-0.5387807
28	0x3e04f845	0.12985332
29	0xbed00d56	-0.40635175
30	0xbf3c35e9	-0.7351976
31	0x3f8fccb8	1.123435
32	0xbf871ff8	-1.0556631
33	0xbf824552	-1.0177405
34	0xbf7c1159	-0.9846397
35	0xbf57bd88	-0.84273577
36	0xbf49efc0	-0.78881454
37	0x3ff1d211	1.8892232
38	0x3fc8b140	1.5679092
39	0x3ea037a0	0.31292439
40	0x3e630bf3	0.22172527
41	0xbf8d085d	-1.1018177
42	0x3eef3af6	0.4672467
43	0xbf9f68ee	-1.2453897
44	0xc0064eb8	-2.0985546
45	0xbe053448	-0.13008225
46	0x3f7b4603	0.98153704
47	0x3e81bcd9	0.25339392
48	0xbfa4d572	-1.2877638
49	0xbefbb660	-0.4916258
50	0x3f3ec5a7	0.74520344
51	0x3fdaa94e	1.7082918
52	0x3ec1602f	0.37768695
53	0x3f1cd91c	0.6126878
54	0x3faee118	1.3662443
55	0xbf2ab929	-0.6668878
56	0x3f6edef7	0.9330897
57	0xbfc8a930	-1.5676632
58	0xbf6d8c34	-0.9279206
59	0xbf1f9d59	-0.6234947
60	0x3e21a171	0.15784241
61	0x3d8d7d10	0.069086194
62	0xbfa56f42	-1.2924578
63	0x3e9877ab	0.297788
64	0x3f9bcaad	1.2171227
65	0x3d892ee0	0.06698394
66	0x3e915f2a	0.28392917
67	0x3ece5bd0	0.40304422
68	0x3f32e20f	0.6987619
69	0x3f866437	1.0499333
70	0xbfd44268	-1.6582766
71	0xbe4fede2	-0.20305589
72	0x3eed34a2	0.46329218
73	0x3f3c6e57	0.73605865
74	0x3f4610bb	0.7736928
75	0x3f4a6d28	0.7907281
76	0xbec3e73c	-0.38262355
77	0xbf583112	-0.84449875
78	0x3ddafb07	0.10692411
79	0xbf8ab87a	-1.0837548
80	0xbe3e111a	-0.18561211
81	0x3f0308c6	0.5118526
82	0x3f7bdc0a	0.9838263
83	0xbf47f7f4	-0.7811272
84	0x3eb2e56b	0.34940657
85	0x3d1cd896	0.03829249
86	0x3f713aa1	0.94230086
87	0xbe868ed5	-0.26280847
88	0x3e553c01	0.20823671
89	0xbf9f7627	-1.2457932
90	0x3eae6962	0.34064776
91	0x3ee6832e	0.45021957
92	0x3f55b48c	0.8347862
93	0x3f7530e3	0.9577772
94	0xbf883028	-1.0639696
95	0xbe1de37f	-0.15418814
96	0x3f5a7945	0.8534129
97	0x3db7e7e9	0.0897978
98	0xbf5de8cd	-0.8668335
99	0xbf439aaf	-0.76407903
100	0x3fab40c1	1.3379136
101	0x3f3f5d7d	0.74752027
102	0xbeac5477	-0.33658192
103	0xbdd6dbbe	-0.10491131
104	0xbfa706eb	-1.3048986
105	0xbcbc6ca2	-0.023001019
106	0xbfc4c594	-1.5372796
107	0xbf60ab90	-0.87761784
108	0xbeb451a9	-0.35218552
109	0xbd9b787b	-0.07591339
110	0xbf6a8f9f	-0.916254
111	0x3f5e3c28	0.8681054
112	0xbefdde5e	-0.49583715
113	0x3f8ec601	1.1154176
114	0x3fa0e284	1.2569127
115	0xbf7ec9e6	-0.9952682
116	0xbf2cdb00	-0.6752167
117	0xbe07ebe6	-0.13273582
118	0x3eb9ba27	0.36274835
119	0xbe8fb12c	-0.2806486
120	0xbea6ad5b	-0.32554135
121	0x3f5feefb	0.8747403
122	0xbf83b5e5	-1.0289885
123	0xbc7744dd	-0.015092102
124	0xbf1cf4d6	-0.6131109
125	0xbf569295	-0.83817416
126	0xbf1b0480	-0.6055374
127	0x3ecd52ae	0.40102142
128	0xbfa2d0f7	-1.2720021
129	0xbe8dbb19	-0.27681807
130	0xbebc3b5e	-0.36764044
131	0x3fb39674	1.403029
132	0xbf92bd4c	-1.1464019
133	0xbeec4e6c	-0.4615358
134	0x3f297f94	0.66210294
135	0xbd731ad2	-0.05935175
136	0x3c837292	0.016045842
137	0xbd4c02d1	-0.049807373
138	0x3f043752	0.5164691
139	0x3f2fe247	0.68704647
140	0x3f08d43f	0.5344886
141	0x3fa03402	1.2515872
142	0x3fe0e45f	1.7569693
143	0xbf355709	-0.7083593
144	0xbf7e63ef	-0.99371237
145	0xbebaa710	-0.36455584
146	0x3f0ec068	0.5576234
147	0xbf2c60a8	-0.67334986
148	0xbe8ee58e	-0.2790951
149	0xc003c31f	-2.0587842
150	0xbfba7ac2	-1.4568713
151	0xbf85e568	-1.0460634
152	0xbf2425a2	-0.64119923
153	0x3fc0f58b	1.5074934
154	0x3f515c36	0.8178133
155	0xbf5e9369	-0.8694368
156	0x3f2bb27a	0.6706921
157	0xbf1ea148	-0.61964846
158	0xbe4c54ca	-0.1995422
159	0xbeca3437	-0.39492962
160	0xbe632802	-0.2218323
161	0xbfa4bd4d	-1.287027
162	0xbf9114e7	-1.1334504
163	0xbf8f0cc4	-1.1175771
164	0xbf108bbc	-0.5646322
165	0xbf5f52b6	-0.8723558
166	0xbf2931a7	-0.6609139
167	0x3dfca939	0.12336964
168	0xbf88ea1b	-1.0696443
169	0xbef2c89f	-0.47418687
170	0x3f2a3041	0.6647988
171	0xbf82fac8	-1.0232782
172	0x4006b6e6	2.1049132
173	0x3faef55f	1.3668631
174	0xbf8cb164	-1.0991635
175	0x3fedc4ab	1.8575643
176	0x3ef926b7	0.4866235
177	0xbee3ba34	-0.44478
178	0x3f943beb	1.1580786
179	0xbfafe6a9	-1.3742267
180	0x3cfba07f	0.030716179
181	0x3ea3fc65	0.320285
182	0xbe49407b	-0.19653504
183	0x3efdf7b6	0.4960305
184	0x3f370dc3	0.71505374
185	0x3dcffb94	0.101554066
186	0xbe27e3ec	-0.16395539
187	0xbdf172d8	-0.11789483
188	0xbf8fa19f	-1.1221198
189	0x3f339df0	0.7016287
190	0x3f4cfb63	0.80071086
191	0x3e9e50cd	0.3092102

network.0.bias f4 [64]
0	0xbf65d281	-0.8977433
1	0x3eb0ed48	0.3455603
2	0xbf6bca49	-0.9210554
3	0xbf555614	-0.8333447
4	0xbf8989ca	-1.0745175
5	0x3f20ed39	0.62861973
6	0xbf37204b	-0.7153365
7	0x3ec8f724	0.39251053
8	0x3ecb18f0	0.39667463
9	0x3f80d3c7	1.0064629
10	0xbebec7c0	-0.37261772
11	0xbef5b122	-0.47986704
12	0xbeafac0d	-0.34310952
13	0x3f37cecf	0.7179994
14	0xbe7f1a9c	-0.24912494
15	0x3f6d4384	0.92681146
16	0x3eb04e69	0.34434822
17	0x3f3902aa	0.7226969
18	0xbe9af842	-0.3026753
19	0xbeadc80e	-0.33941692
20	0xbf2bda7d	-0.6713026
21	0xbf5fcc52	-0.87421143
22	0x3f03de18	0.51510763
23	0x3ef408e7	0.47663042
24	0xbf820aef	-1.0159587
25	0xbf459640	-0.7718239
26	0x3f18b696	0.59653604
27	0xbf7d00fa	-0.98829615
28	0x3e9ee49e	0.31033796
29	0x3f25dad8	0.64787054
30	0x3f2658b1	0.6497908
31	0x3ec52b8d	0.3850979
32	0xbf85a64e	-1.0441377
33	0x3ec8bf02	0.39208227
34	0xbf6df0ab	-0.92945355
35	0xbf5069da	-0.81411517
36	0xbf5ccb9a	-0.8624817
37	0xbe46888d	-0.19388027
38	0x3ee79fd5	0.4523913
39	0x3f8f080a	1.1174328
40	0x3aefd291	0.0018297007
41	0x3f3984dc	0.7246835
42	0x3f557f5d	0.83397466
43	0xbfaee096	-1.3662288
44	0x3e8c3261	0.27382186
45	0xbed0f5f9	-0.40812662
46	0xbf448cf6	-0.7677759
47	0x3ed4f2fb	0.4159163
48	0x3ea75699	0.32683256
49	0xbe5b6960	-0.21426916
50	0xbe8d9fd1	-0.27660993
51	0x3e191aba	0.14951602
52	0x3f6bfa06	0.9217838
53	0xbf534d7a	-0.82540095
54	0x3f4b88d3	0.7950565
55	0xbfb1dfad	-1.3896385
56	0x3e8cdd9b	0.27512822
57	0xbf06873e	-0.52550113
58	0xbfaa08b6	-1.3283908
59	0x3aed3b87	0.0018099406
60	0x3f985e25	1.1903731
61	0xbf1d5efc	-0.6147306
62	0xbf1bc62c	-0.6084926
63	0xbececabc	-0.4038905

network.2.weight f4 [32, 64]
0	0xbfd3d750	-1.6550083
1	0x3e18f55f	0.14937352
2	0x3f8416fd	1.0319515
3	0x3f2462a2	0.64213
4	0xbf4f4c7e	-0.8097609
5	0x3df1b81c	0.11802694
6	0xbe6390d6	-0.2222322
7	0xbfa7eba8	-1.3118792
8	0xbcff6b1d	-0.031179005
9	0xbd12ab30	-0.03580779
10	0x3d9de3b4	0.077094465
11	0x3f1383e0	0.576231
12	0x3fad6a9e	1.3548162
13	0x3d99731d	0.07492659
14	0x3f25fd8c	0.64840007
15	0x3d415620	0.047201276
16	0xbf25fce0	-0.6483898
17	0x3ee64795	0.44976488
18	0xbf6fd9c5	-0.93691665
19	0x3ebe9c1d	0.3722848
20	0x3eae1368	0.3399918
21	0xbfbd84e7	-1.4806184
22	0xbee22bed	-0.44174138
23	0x3faa02c0	1.3282089
24	0xbeaba7c3	-0.3352643
25	0x400bcc93	2.1843612
26	0xbebea576	-0.37235612
27	0x3eb512ff	0.35366055
28	0xbee18cb8	-0.44052672
29	0x3e08a18d	0.13342877
30	0xbef8030b	-0.48439822
31	0x3f4c48c5	0.7979854
32	0x3f9a6a39	1.2063667
33	0x3f596d28	0.84932184
34	0x3cf48a0b	0.02985098
35	0x3fc7d612	1.5612204
36	0x3e58753b	0.2113847
37	0xbf8d0dd4	-1.1019845
38	0x3ef2b33c	0.4740237
39	0xbe891509	-0.2677386
40	0x3e1d1509	0.15340056
41	0xbc9b3757	-0.018947287
42	0x3db46d93	0.08809962
43	0x3f6d9a9a	0.9281403
44	0xbf19cdc2	-0.60079587
45	0x3cb7f4e0	0.022455633
46	0xbeb5852e	-0.3545317
47	0xbeb3149a	-0.34976655
48	0xbeab30e3	-0.33435735
49	0x3cc6b7a3	0.024257487
50	0x3f10afe2	0.56518376
51	0x3f97cb1a	1.1858857
52	0xbeaa9f7c	-0.33324802
53	0xbdcde2ef	-0.1005305
54	0x3c34c4a0	0.011033207
55	0x3ffd7efc	1.9804378
56	0xbe9fc119	-0.3120201
57	0x3e9ba065	0.3039581
58	0xbf8604da	-1.047023
59	0x3e5b52c1	0.21418287
60	0xbef1d8ee	-0.47235817
61	0xbfcb48d8	-1.5881605
62	0x3ddee085	0.108826675
63	0x3f22bf6b	0.6357333
64	0xbe6d6a16	-0.23185
65	0x3cf0912b	0.029366096
66	0xbf622038	-0.8833041
67	0x3fd4f067	1.6635865
68	0x40366a3a	2.8502336
69	0x3f0982a5	0.5371497
70	0x3f6f968a	0.9358908
71	0xbd6562b0	-0.05600232
72	0x3f6fc9fd	0.93667585
73	0xbe66b6e2	-0.22530702
74	0x3fa2eafc	1.2727962
75	0xbde9a640	-0.11408663
76	0x3f384f00	0.71995544
77	0x3eeeac76	0.46615952
78	0x4029215c	2.642661
79	0x3f504261	0.81351286
80	0x3ea30408	0.31839013
81	0xbe33859b	-0.17531435
82	0x3f25d396	0.6477598
83	0xbf8fb9f5	-1.1228625
84	0xbf8a7012	-1.0815451
85	0x3f3b4fa9	0.73168427
86	0x3e06b2db	0.13154165
87	0xbaae5f94	-0.0013303631
88	0xbf221e95	-0.63327914
89	0x3ea4f8f8	0.32221198
90	0xbcc5df75	-0.024154404
91	0xbd7d21a0	-0.061799645
92	0xbea73b91	-0.32662633
93	0xbf30c57a	-0.69051325
94	0x3d15c18f	0.036561545
95	0x3e5d93a9	0.21638359
96	0xbf3bf2a1	-0.734171
97	0xbe1ed857	-0.15512215
98	0xbf3d0607	-0.7383732
99	0xbf9df96d	-1.2341744
100	0xbf2f93d6	-0.68584955
101	0xbe484ad4	-0.19559795
102	0xbeb1f641	-0.3475819
103	0x3e64ceb5	0.22344477
104	0x3f1af5a8	0.6053109
105	0x3ef75d03	0.4831315
106	0xbec77428	-0.38955808
107	0x3f1a97b1	0.6038771
108	0x3e678748	0.226102
109	0x3df02ee8	0.11727697
110	0xbec5782f	-0.38568255
111	0x3ed52826	0.41632193
112	0x3d8678dd	0.065660216
113	0xc001a727	-2.0258272
114	0xbfb8c12b	-1.443395
115	0xbead3642	-0.33830458
116	0xbe7da794	-0.24770957
117	0xc05c8061	-3.4453356
118	0x3e0dc669	0.13845219
119	0xbe8078b6	-0.25092095
120	0x3e496514	0.19667464
121	0x3f1d7811	0.6151133
122	0xbe6cb795	-0.23116906
123	0x3eb9beed	0.36278477
124	0x3e68af95	0.22723229
125	0xbe9cc990	-0.3062253
126	0xbf588f9b	-0.84594125
127	0x3e704ebd	0.23467536
128	0x3f997b0e	1.1990678
129	0xbfa2c2aa	-1.2715657
130	0xbf33f42d	-0.7029446
131	0x3e15f8d4	0.14645702
132	0xbdda4663	-0.106579565
133	0x3f2352c7	0.63798183
134	0x409646b8	4.6961327
135	0x3cf8aca7	0.030355765
136	0x3fc6fadc	1.5545306
137	0xbf7e0c64	-0.99237657
138	0xbef114da	-0.4708622
139	0xbfacdc68	-1.3504763
140	0xbeb7a098	-0.3586471
141	0x3f5458f1	0.82948214
142	0xbba265af	-0.0049559693
143	0x3f2f846d	0.6856144
144	0xc06f7829	-3.741709
145	0x3eb0210c	0.34400213
146	0xbe1d5d39	-0.15367593
147	0xbfa3203c	-1.2744212
148	0xbec6487e	-0.38727182
149	0x3fdae8ac	1.7102256
150	0x3e9fa062	0.3117705
151	0x3e1aab01	0.15104295
152	0x3e410dd8	0.18852937
153	0x3e4a50d1	0.19757392
154	0xbcdb4b78	-0.026769385
155	0x3fd65421	1.6744424
156	0x3c785be6	0.015158629
157	0xbf66bc2e	-0.9013089
158	0x3e19cc8c	0.15019435
159	0x3e0dd802	0.13851932
160	0xbf97320f	-1.1812152
161	0xbf7deb19	-0.99186856
162	0xbe1de084	-0.15417677
163	0x3f99c256	1.2012432
164	0xbe7d823b	-0.2475671
165	0xbf3897a0	-0.7210636
166	0x3ee45573	0.44596443
167	0x3ee28f38	0.44249892
168	0xbf14d72f	-0.58140844
169	0x3fa40bee	1.2816141
170	0xbf1d95b5	-0.6155656
171	0xbf636828	-0.88830805
172	0xc064b9c9	-3.5738394
173	0x3d387860	0.045036674
174	0xbe0ee115	-0.1395305
175	0x3fa53e04	1.2909551
176	0xc04de02d	-3.2168076
177	0xbf9ce20b	-1.2256483
178	0xbff77dc8	-1.933526
179	0x3f1b85f8	0.60751295
180	0x3db38255	0.08765093
181	0xc00b79b3	-2.179303
182	0x3e25f469	0.16206516
183	0xbdb8c4d5	-0.09021918
184	0xc04462c4	-3.0685282
185	0x3f8070aa	1.0034382
186	0xbf811cc7	-1.0086907
187	0xbf319ea7	-0.6938271
188	0x3dfd2bef	0.12361895
189	0x3d927a72	0.07152261
190	0xbe88e44f	-0.26736686
191	0x3f45cb6e	0.77263534
192	0x3ddc3c21	0.10753656
193	0x3dbcb4f2	0.092142
194	0x3e8a67ab	0.27032217
195	0xc0417226	-3.022592
196	0xbf181dc5	-0.59420425
197	0x3e7c5c58	0.24644601
198	0x3d3643da	0.044498302
199	0x3eb1fd72	0.34763676
200	0xbf07e14e	-0.5307816
201	0x3e7ca4e6	0.24672279
202	0xbf3ee6b7	-0.7457079
203	0xbec44dd8	-0.3834064
204	0xbf23f83d	-0.64050657
205	0x3e5dcb32	0.21659544
206	0x3f0cea4c	0.5504501
207	0x3ca38859	0.019962477
208	0xbbee8f46	-0.007280263
209	0x3eb43a6b	0.3520082
210	0xbf3a2c18	-0.7272353
211	0x3d42e481	0.0475812
212	0xc0137b32	-2.3043942
213	0xbf18f2bc	-0.59745383
214	0x3e65cd6a	0.2244164
215	0x3deb1829	0.114792176
216	0x3fa1951f	1.2623633
217	0x3ea7533e	0.32680696
218	0x3d6840cd	0.056702424
219	0xbdc39530	-0.0954994
220	0xbedf9de5	-0.4367515
221	0xbde2bb5d	-0.11070893
222	0x3d63394e	0.055474572
223	0xbc9f68e0	-0.019459188
224	0x3f1526e8	0.5826249
225	0x3e73c165	0.23804243
226	0xbfd3f8cf	-1.6560305
227	0x3f0591fc	0.5217588
228	0xc0027c6a	-2.0388436
229	0x3f095bdf	0.5365581
230	0x3f1cfde6	0.6132492
231	0x3e3f7d3b	0.18700115
232	0x3f0c0571	0.546958
233	0xbebb3936	-0.36567086
234	0xbf1d4062	-0.61426365
235	0x3f703c1d	0.93841726
236	0x3c930ae8	0.017949536
237	0xbdb359dc	-0.08757374
238	0x3f669f45	0.90086776
239	0x3ea4f6f1	0.3221965
240	0xbe03148a	-0.12800804
241	0x3f985d8e	1.1903551
242	0x3ec4bdcc	0.38426054
243	0x3f8d5f79	1.1044761
244	0xbdaac1d5	-0.08337752
245	0xbffbb3e4	-1.9664273
246	0x3ef88bb4	0.48544085
247	0x3fa99757	1.324931
248	0x3d901553	0.07035317
249	0x3eeb37ec	0.45941103
250	0xbd5b518c	-0.053544566
251	0x3eda05f5	0.4258267
252	0x3cf17ebf	0.029479383
253	0x3f7550b9	0.958263
254	0xbfd1b7d1	-1.6384221
255	0x3e94f13c	0.29090297

network.2.bias f4 [32]
0	0xbe5e1a04	-0.21689612
1	0xbc6f4d1e	-0.0146057885
2	0x3e6bba0b	0.23020189
3	0x3d10bf68	0.03533879
4	0xbdb1426d	-0.08655248
5	0xbcd218da	-0.025646616
6	0x3e6f02cd	0.23340912
7	0xbe2e521c	-0.1702351
8	0xbec318a9	-0.38104752
9	0x3e2ffa5a	0.17185345
10	0xbd195a20	-0.037439466
11	0x3ea0480f	0.31304976
12	0xbe245fd6	-0.16052184
13	0xbd0eb1b4	-0.03483744
14	0xbcbfedc0	-0.023428798
15	0x3ecef7b6	0.40423363
16	0x3d79fe59	0.06103358
17	0x3efe866d	0.49711934
18	0x3f064fdb	0.524656
19	0x3e46cd4c	0.19414252
20	0xbe3a4fc2	-0.18194488
21	0x3dd086cc	0.101819605
22	0x3d261ea6	0.040556572
23	0x3e71c896	0.23611674
24	0x3e42b565	0.19014509
25	0xbcfec761	-0.03110093
26	0x3e941b2c	0.2892698
27	0xbd94b297	-0.07260626
28	0xbec274a8	-0.37979627
29	0xbe621230	-0.2207725
30	0x3e84ea4d	0.25960007
31	0x3ec7867c	0.3896979

network.4.weight f4 [3, 32]
0	0xbffecae3	-1.9905666
1	0x3f9affec	1.2109351
2	0x40133092	2.2998395
3	0xbf2a9777	-0.66637367
4	0x3f6beecf	0.9216127
5	0x3c55069c	0.013002064
6	0xbf9941c4	-1.1973195
7	0x3eee5526	0.46549338
8	0x3faedbc9	1.3660823
9	0x3f415e21	0.75534254
10	0x3dfcf39a	0.12351151
11	0xbf889f9a	-1.0673707
12	0x3ff33c50	1.9002781
13	0xbdce3a48	-0.1006971
14	0xbfa69425	-1.301396
15	0xbbbe9775	-0.005816395
16	0x3e1dd8d6	0.15414748
17	0xbf11da98	-0.5697417
18	0x400bb6a3	2.1830223
19	0xbd0658cd	-0.03279953
20	0x3d8a439f	0.06751179
21	0x3ea2312e	0.31678146
22	0x3f26fde2	0.65231144
23	0x3f839797	1.0280637
24	0xbe28443d	-0.16432281
25	0x3d69e150	0.05709964
26	0x3fd92fd3	1.696772
27	0xbfd371f7	-1.6519154
28	0xc0d19915	-6.549937
29	0xbfb0e01b	-1.3818392
30	0xbf92de75	-1.1474138
31	0x3ed2a555	0.41141763
32	0x3f7a1be9	0.9769884
33	0xbf1e5b39	-0.61857945
34	0xbfd713a5	-1.680287
35	0xc03d5eee	-2.958919
36	0x3f971e1b	1.1806062
37	0xbdd37e99	-0.10326881
38	0xbf54c3db	-0.8311135
39	0x3fa4534b	1.2837919
40	0x3e624252	0.22095612
41	0xbfa8d1d4	-1.3189034
42	0x3cd534e9	0.026026206
43	0x3ff4b499	1.9117614
44	0x3e5785f3	0.21047191
45	0x3d9e6d89	0.07735736
46	0xbe96d696	-0.2946059
47	0x3fa1d601	1.2643434
48	0x3fe64586	1.7989967
49	0x3fadf48e	1.3590257
50	0x3f3104b8	0.69147825
51	0xc0037858	-2.0542202
52	0x3b427672	0.002967265
53	0x3f514813	0.817506
54	0x3f9f3709	1.243867
55	0xbf7f3413	-0.99688834
56	0xc007b9bc	-2.1207113
57	0x3d45dbd1	0.048305336
58	0xbfa30d8a	-1.2738507
59	0xc01c1353	-2.4386795
60	0x3f96c34f	1.1778353
61	0x3f59ec1c	0.851259
62	0x3f5877ea	0.84557974
63	0xc027dc16	-2.622808
64	0x3f8ea904	1.114533
65	0xbf31fd8d	-0.6952751
66	0xc00e733c	-2.2257833
67	0x3fb5ba21	1.4197427
68	0xbfd0e062	-1.6318476
69	0xbd4925fd	-0.049108494
70	0x3fa7089a	1.30495
71	0xbfe15461	-1.7603875
72	0xbff75823	-1.9323772
73	0x3bfed7be	0.0077771833
74	0xbe2aea75	-0.16691001
75	0x3ecd3b43	0.40084276
76	0xc002102a	-2.0322366
77	0xbd8a9994	-0.06767574
78	0x3f9ef628	1.2418871
79	0xbfb8b342	-1.4429705
80	0xbf8e1577	-1.11003
81	0xbec00dff	-0.37510678
82	0xc0337dec	-2.8045607
83	0x3f4b9bf8	0.79534864
84	0x3d39d5e6	0.045370005
85	0xbf89f289	-1.0777141
86	0xbfa45d7e	-1.2841032
87	0xbe571a3c	-0.21006101
88	0x3f844d7c	1.0336146
89	0x3cbd6047	0.023117198
90	0xbfaaf09b	-1.3354677
91	0x40061085	2.0947583
92	0x3f5a35f8	0.852386
93	0x3f2c74d6	0.6736578
94	0x3f3992f0	0.72489834
95	0x3f180441	0.5938149

network.4.bias f4 [3]
0	0xbc2a66b6	-0.010400465
1	0x3e8eb54e	0.278727
2	0xbb7c0169	-0.003845299
